src/model.pt (torch, 803804 bytes, 10 tensors)

fc1.weight f4 [256, 6]
0	0xbe0010fd	-0.1250648
1	0xbd9908e6	-0.074724
2	0xbf61f635	-0.8826631
3	0xbb92b0b1	-0.0044766297
4	0x3e078fe6	0.13238487
5	0xc0697fff	-3.6484373
6	0xbd830129	-0.06396706
7	0x3da5c8ae	0.08094917
8	0x3cd094df	0.025461612
9	0x3d2e02c9	0.042483125
10	0xbcdfd889	-0.027324932
11	0x3d87fac1	0.066396244
12	0xbce23a0b	-0.027615568
13	0xbfb2835f	-1.3946341
14	0xc073d00f	-3.809574
15	0x3e9313c5	0.2872602
16	0xbfc529e9	-1.5403415
17	0x3f666107	0.899918
18	0xbd7f71ae	-0.062364273
19	0xbc02a12e	-0.007972999
20	0x3d9ae1c3	0.07562592
21	0x3c95fca2	0.018308941
22	0xbcbd45a7	-0.023104502
23	0xbd5dddb9	-0.05416653
24	0xbdf1be01	-0.118038185
25	0xbc5b8124	-0.013397489
26	0xbf5773c4	-0.8416102
27	0x3f3d51ab	0.7395274
28	0x3dee06dd	0.11622403
29	0xc01a47ff	-2.4106443
30	0xbb174ab4	-0.0023085298
31	0x3cbbbad0	0.022916228
32	0x409bb188	4.8654213
33	0x40f8619f	7.7619166
34	0x3dee66f5	0.11640731
35	0x3f4a2f0d	0.78978044
36	0xbdbe32c8	-0.092870295
37	0xbe248daa	-0.16069666
38	0xbf95f867	-1.1716431
39	0xbedb5467	-0.4283783
40	0x3d29424d	0.041322995
41	0xc0150243	-2.328263
42	0xbd9c5203	-0.0763283
43	0xbec2dcec	-0.38059175
44	0x40cc585d	6.3857865
45	0x40dc3fa3	6.882768
46	0x3ebc17a9	0.367368
47	0xc072411b	-3.7852237
48	0xbc0ca73b	-0.008584793
49	0x3f8e43a6	1.1114395
50	0x3fbb6639	1.4640571
51	0x4097cbc4	4.7436237
52	0xbd71a0ea	-0.05899135
53	0x3edc1c8a	0.42990524
54	0x3c84c987	0.016209377
55	0x3e57935d	0.21052308
56	0xc1109fae	-9.038984
57	0xc08f9737	-4.487209
58	0xbc57a873	-0.01316272
59	0xc07975e6	-3.897821
60	0xbc9b1833	-0.018932438
61	0xbd5ef8f1	-0.054436628
62	0x3b8ebc0e	0.004355914
63	0xbd99d8d8	-0.07512063
64	0xbc422d85	-0.011851673
65	0x3d18af11	0.03727633
66	0x3c09103c	0.008365687
67	0x3f331441	0.6995278
68	0xc0b877cb	-5.764623
69	0xc023cc61	-2.5593493
70	0xbef1e5ed	-0.47245732
71	0x3f152d4a	0.5827223
72	0xba7a601a	-0.00095510634
73	0xbe861002	-0.26184088
74	0x405f8096	3.4922233
75	0x40e179e5	7.0461297
76	0x3d997dde	0.074947104
77	0x3f402306	0.7505344
78	0xbd1f7e76	-0.038938962
79	0x3ccb56a2	0.024821583
80	0x3d54bba4	0.05193676
81	0xbcd5e814	-0.02611164
82	0xbd596d5e	-0.053082816
83	0xbd8ea974	-0.06965914
84	0xbdb89649	-0.090130396
85	0xbd6de521	-0.058079842
86	0xbf601fc7	-0.8754849
87	0xbed388b0	-0.41315222
88	0x3e02e17b	0.12781326
89	0xc08c4197	-4.3830066
90	0xbb812663	-0.0039413436
91	0xbe3d0e78	-0.1846255
92	0x4003ce8f	2.0594823
93	0x409ada43	4.8391433
94	0x3e602f48	0.21893036
95	0x3fa01adb	1.2508196
96	0xbf07f0dd	-0.53101903
97	0x3d5bf20d	0.053697634
98	0xbf7cd626	-0.98764265
99	0xbe2fcc54	-0.17167789
100	0x3e57e0db	0.2108187
101	0x3f9d8f8a	1.230943
102	0x3c24820e	0.010040773
103	0x3e804d3d	0.25058928
104	0xc0aee495	-5.465403
105	0xc100d724	-8.052525
106	0xbd4c4732	-0.049872585
107	0xbc8f5e91	-0.017501147
108	0x3c91c6c6	0.017794978
109	0x3e54a489	0.2076589
110	0x3ede573c	0.4342593
111	0xbfb096ce	-1.3796022
112	0xbda6a04e	-0.081360444
113	0xc0a0adda	-5.021222
114	0x3c144e41	0.00905186
115	0x4008b263	2.1358879
116	0xc0c262c8	-6.0745583
117	0xbfa30a2c	-1.2737479
118	0xc01a528f	-2.411289
119	0x3f1f5e97	0.6225371
120	0xbd603ca3	-0.054745328
121	0x3c051d28	0.008124627
122	0xbc97a66f	-0.018511979
123	0xbcee6d0b	-0.02910473
124	0xbd807694	-0.06272617
125	0x3d76430b	0.06012253
126	0xbb9befc0	-0.004758805
127	0x3c3137e8	0.010816552
128	0x40a57728	5.1707954
129	0x411d7537	9.841117
130	0x3c6a89ae	0.014315052
131	0x3f269c01	0.65081793
132	0xbc49c68a	-0.012315402
133	0x3cfb4b87	0.030675663
134	0xbcfe6aa2	-0.031056706
135	0x3c0ab519	0.008466029
136	0xbd90a2a9	-0.07062275
137	0x3c190ffb	0.009342189
138	0xbcd805e5	-0.026369998
139	0x3c7f62a4	0.015587483
140	0x3d90ad58	0.07064313
141	0x3bde59f7	0.006785627
142	0xbcbdb08d	-0.023155475
143	0x3d497d62	0.04919184
144	0x3aae5e35	0.0013303222
145	0xbe814d4d	-0.25254288
146	0x3ff2f03a	1.8979561
147	0x4085ad38	4.177395
148	0x3e2eb367	0.17060624
149	0x3fca34f5	1.5797411
150	0xbd79df53	-0.061003994
151	0x3ebf0602	0.3730927
152	0xc0aa996c	-5.3312283
153	0xc0977c3e	-4.7339163
154	0xbda43ecb	-0.08019789
155	0x3f9eaa6d	1.239576
156	0xbd9e9a44	-0.077442676
157	0x3bcb08e6	0.006196129
158	0xbcdafecb	-0.026732823
159	0x3d7fe02c	0.062469646
160	0xbcc19792	-0.023631845
161	0x3d51aad8	0.05118832
162	0x3bfc90c9	0.0077076894
163	0x3dfd85cd	0.12379036
164	0x3ed5e3bc	0.4177531
165	0xbfda963f	-1.7077101
166	0x3ce8b9a8	0.02840884
167	0xc0acc8d0	-5.3995132
168	0x3bcd9f02	0.0062750587
169	0xbc5eb465	-0.013592814
170	0x3ef5ad50	0.4798379
171	0x3f15fe35	0.58591014
172	0x3d40b364	0.04704608
173	0xc0fe4c7b	-7.946836
174	0xbb3c9b43	-0.0028779067
175	0x3e20dd2f	0.15709375
176	0x40584ffc	3.3798819
177	0x411ad539	9.677056
178	0x3d7c94b4	0.06166525
179	0x3ef85c70	0.48508024
180	0x3b5713f4	0.003281829
181	0xbdfe00cd	-0.124024965
182	0xc1a55402	-20.66602
183	0xc0d11a16	-6.5344343
184	0x3da5f61c	0.08103582
185	0xbf994764	-1.1974912
186	0xbd9683bd	-0.07349346
187	0x3da07323	0.078344606
188	0xbcd3ad57	-0.02583949
189	0xbc9dbd75	-0.01925538
190	0xbd9bae3f	-0.07601594
191	0xbc2a2b56	-0.010386309
192	0x3d3918f8	0.045189828
193	0xbe3ff007	-0.18743907
194	0x400f8da7	2.2430208
195	0x407784dd	3.8674843
196	0x3e3a0089	0.18164267
197	0x3fca070e	1.5783403
198	0xbe8268be	-0.25470537
199	0x3eb77381	0.3583031
200	0xc0b0279e	-5.504836
201	0x3edb3bc7	0.42819044
202	0x3e5302db	0.20606558
203	0xbfc37177	-1.5269002
204	0x3d6a3b71	0.057185594
205	0xbf1c2dd3	-0.6100742
206	0x3fda9d13	1.7079185
207	0x4082f050	4.091835
208	0x3e45167d	0.1924686
209	0x3f91d4bf	1.139305
210	0xbc6768a2	-0.0141240675
211	0x3f40433d	0.751026
212	0xc03168ca	-2.7720208
213	0x407bf8bf	3.9370573
214	0xbe5171f2	-0.20453623
215	0x3f708fc9	0.939694
216	0xbe583de5	-0.21117361
217	0xbd97f24e	-0.07419263
218	0x3e6c4497	0.2307304
219	0xc0994a58	-4.790325
220	0x3d1178f6	0.035515748
221	0x40198224	2.3985682
222	0xbd8b425a	-0.06799765
223	0xbdb23969	-0.08702356
224	0xbd0ea9f4	-0.03483005
225	0xbc947a6a	-0.018124778
226	0x3cb7fba6	0.022458863
227	0xbc28c7ce	-0.010301543
228	0xbd7eb1eb	-0.062181395
229	0x3d9b0c93	0.07570758
230	0x3cc5dccb	0.024153134
231	0xbca0d05f	-0.01963061
232	0xbd8452c9	-0.064611025
233	0x3cbfed81	0.02342868
234	0x3c88b8fc	0.01668977
235	0xc0c7793b	-6.2335486
236	0x3fb0e611	1.3820211
237	0xc10755bd	-8.458432
238	0xc09b4a8f	-4.8528514
239	0x3f98c4e0	1.1935081
240	0xbac8bf77	-0.001531585
241	0xbe9d83a7	-0.30764505
242	0x40a3b93f	5.116363
243	0x41021f82	8.132692
244	0x3d75fa17	0.060052957
245	0x3ed0fd3d	0.40818205
246	0xbd436541	-0.047703985
247	0x3d159940	0.036523104
248	0xbb5b4323	-0.0033456765
249	0x3d92a40a	0.07160194
250	0xbc4d3a8c	-0.012526166
251	0x3d96a080	0.07354832
252	0x3bf46111	0.0074578603
253	0x3eb2ec1b	0.3494576
254	0xc0465695	-3.0990345
255	0x3fbcf621	1.4762613

fc1.bias f4 [256]
0	0xbf32bcd3	-0.6981937
1	0x3d889a3d	0.066700436
2	0x4063820e	3.554813
3	0xbcd9d8b5	-0.026592592
4	0xbebdc748	-0.37066102
5	0x41af8ab3	21.942724
6	0xbf3ced66	-0.7379974
7	0x40c8bbd3	6.2729278
8	0x41a5725f	20.680845
9	0xc19dfc0f	-19.748075
10	0x3d144434	0.036197856
11	0xc0c7c563	-6.242845
12	0x4182394f	16.277983
13	0xbbb8dc91	-0.005641528
14	0xbf8c609e	-1.0966985
15	0x417f966e	15.974226
16	0x3e1d1ab3	0.15342216
17	0xc18bd5e4	-17.479439
18	0xc1024d4e	-8.143873
19	0xc133bf3f	-11.234191
20	0xbd329efe	-0.043608658
21	0x41bf830a	23.938984
22	0xbc36c254	-0.01115473
23	0x3d9773c5	0.07395128
24	0x41760f9f	15.378814
25	0xc0b6aacc	-5.708349
26	0xbd999722	-0.074995294
27	0xc0b605cb	-5.688207
28	0xc144b98d	-12.2953005
29	0x413dcf0c	11.863049
30	0xc18e4852	-17.785313
31	0xbd49f340	-0.049304247
32	0x41669a24	14.412632
33	0xbef19d5a	-0.47190362
34	0x416021c8	14.008247
35	0x4044ce9a	3.07511
36	0x3e1259f5	0.14292128
37	0x3d863592	0.065531865
38	0xbd9ffb7c	-0.07811639
39	0x4173dca2	15.241365
40	0x41a6d83a	20.85558
41	0x3cc3e1a5	0.023911307
42	0xc0907846	-4.514682
43	0x40905384	4.510195
44	0x41d7855f	26.940123
45	0xbd6536b7	-0.055960383
46	0x3cc4d659	0.02402799
47	0xbf77476f	-0.96593374
48	0x3c3f167e	0.011663077
49	0x3c4c2790	0.012460604
50	0x40a5a9f5	5.1769967
51	0xc1a58c65	-20.693552
52	0xbda4f384	-0.080542594
53	0xc0f57791	-7.6708455
54	0xc165c78f	-14.36122
55	0xc1a1b2d2	-20.212315
56	0x41818cde	16.193783
57	0xc0a369c9	-5.106663
58	0xc192f037	-18.367292
59	0xbab9f25e	-0.0014186611
60	0xbd589157	-0.052872982
61	0x3cc0cf18	0.02353625
62	0xc1b95243	-23.165167
63	0xc04274f8	-3.0383892
64	0xbd81d50b	-0.06339463
65	0xbd37b17d	-0.044847
66	0x3d9b6bc2	0.075889125
67	0x4104b876	8.295034
68	0xc18416bc	-16.5111
69	0x41240752	10.251787
70	0xc141abe6	-12.104467
71	0x41483e19	12.515161
72	0xc037d06c	-2.872096
73	0x40a897eb	5.2685447
74	0xbd4de924	-0.05027117
75	0xc19eab07	-19.83351
76	0xbfffaef6	-1.9975269
77	0x418638f9	16.777819
78	0xc14ea82b	-12.916057
79	0xbcd0e7c5	-0.025501141
80	0x418a86bb	17.315786
81	0x418cb735	17.589457
82	0x40144268	2.316553
83	0xc18626b3	-16.768896
84	0x4180aa0a	16.083027
85	0x403e8491	2.9768412
86	0xbd874ec0	-0.06606817
87	0xbcf53119	-0.029930638
88	0xc1272a4d	-10.447827
89	0xc1a294d6	-20.322674
90	0xbd747fd2	-0.05969221
91	0xc08b05d0	-4.3444595
92	0x41b30cb3	22.3812
93	0xc188f232	-17.11826
94	0x3c9e88c7	0.01935233
95	0x410d7b0d	8.842542
96	0xc197e415	-18.986368
97	0x41a78e21	20.944399
98	0xbc73eaac	-0.014887493
99	0x3ceb171f	0.028697548
100	0x41d34462	26.40839
101	0xbd9e67ad	-0.07734618
102	0xbcf6246c	-0.030046664
103	0x41509c0b	13.038096
104	0x3d735177	0.059403863
105	0x410ae7d3	8.681598
106	0x3cf032ad	0.02932104
107	0xc186916f	-16.821012
108	0xbf2e64c3	-0.681225
109	0x41268eae	10.409834
110	0xbce51b2d	-0.02796706
111	0x412d56d8	10.833702
112	0x4171c9ca	15.111765
113	0x417f83b9	15.969659
114	0x416801db	14.500453
115	0x41a26f1f	20.304258
116	0x3d9608bb	0.07325884
117	0x4182bb22	16.341373
118	0x41cedb26	25.857006
119	0xc1cf0a11	-25.879915
120	0xc1858775	-16.691141
121	0x4144162b	12.255412
122	0x41c32b5d	24.396173
123	0xc1ac9f3b	-21.57775
124	0x413508c0	11.314636
125	0x418c80cd	17.562891
126	0xbe0948f4	-0.13406736
127	0x417f2eb5	15.948903
128	0xc0d07f40	-6.5155334
129	0x41433306	12.199957
130	0xbd0d2ee8	-0.03446856
131	0xc0b7f238	-5.7483177
132	0x41a9af3d	21.210566
133	0xc0f8e39d	-7.777785
134	0xbcf604a3	-0.030031508
135	0x40c29e98	6.0818596
136	0x4137f606	11.497564
137	0xbc34c213	-0.011032599
138	0xc13aeaee	-11.682356
139	0xc105b536	-8.356741
140	0xbd8e9614	-0.06962219
141	0x416d3dc5	14.82758
142	0xbd12061a	-0.03565035
143	0xbd91c595	-0.07117764
144	0xbf9f64a4	-1.2452588
145	0x419c6c93	19.553015
146	0xc1a85d50	-21.045563
147	0x3d5febfd	0.054668415
148	0x41b92868	23.14473
149	0x40e34f04	7.1033955
150	0x4100c242	8.047426
151	0xc143dd41	-12.241517
152	0x40a250a2	5.072343
153	0xbb164210	-0.002292756
154	0xc1db5741	-27.417604
155	0xc026108a	-2.5947595
156	0xc1196321	-9.586701
157	0xc0a175c1	-5.0456243
158	0x3d6afab3	0.05736799
159	0xc08e8380	-4.4535522
160	0xbc638611	-0.013886944
161	0x41861e59	16.764818
162	0xc16bb5d5	-14.731893
163	0x415cd3ba	13.801691
164	0xc03a3dd8	-2.9100246
165	0xc08d947f	-4.424377
166	0x41669b58	14.412926
167	0x41cc5560	25.541687
168	0x3e5e62f4	0.21717435
169	0xc0f0381e	-7.5068502
170	0x417f300e	15.949232
171	0xbbee2d19	-0.0072685597
172	0x41a7dca8	20.982742
173	0xbc220395	-0.009888549
174	0x41961c27	18.763746
175	0xc00691b9	-2.1026442
176	0x3c7ead60	0.0155442655
177	0x3cb5d94a	0.022198338
178	0x3d83e1f3	0.06439581
179	0xbd429ce8	-0.04751292
180	0xbd556686	-0.052099727
181	0xc143b9ee	-12.232893
182	0xc184df5f	-16.609068
183	0x415d0f92	13.816301
184	0x41a94a62	21.16132
185	0x419fdbc5	19.98231
186	0x40c12abc	6.0364666
187	0x3d553fe4	0.052062884
188	0x3d90baed	0.07066903
189	0x4188fd62	17.123722
190	0x4190a873	18.08225
191	0xc0887412	-4.2641687
192	0xc11bc421	-9.735383
193	0x3beeec2b	0.007291337
194	0xc1357b50	-11.342606
195	0xbdb8e7f0	-0.090286136
196	0xbf909eca	-1.1298459
197	0xc0aa3ea2	-5.3201456
198	0xbd1d1ec8	-0.038359433
199	0xbc6df748	-0.0145242885
200	0xc10ba74c	-8.728344
201	0xbf7d8cce	-0.99042976
202	0xbfab2a96	-1.3372371
203	0xc05d0ae7	-3.4537904
204	0xbca1e53b	-0.019762626
205	0x4113d19c	9.238674
206	0x3c972a18	0.018452689
207	0xbd3d6b53	-0.04624493
208	0xbd260164	-0.04052867
209	0xc11a2ef2	-9.636461
210	0x41443ba7	12.264564
211	0xc154df6c	-13.304546
212	0xc0ecabc3	-7.395967
213	0xbfc10672	-1.5080092
214	0xc09aa2e0	-4.832382
215	0xc1a855f3	-21.041967
216	0x41d21d0c	26.264183
217	0xc182f39c	-16.36895
218	0x418bfe7f	17.499266
219	0x3d37e6bd	0.044897784
220	0xc1900fd3	-18.007727
221	0x3cd0eb5e	0.025502857
222	0x3d8de26a	0.06927951
223	0x3d2fd2b1	0.04292554
224	0x3d1b41fa	0.037904717
225	0xbd441bc3	-0.04787804
226	0xc19fbb08	-19.966324
227	0x41aed7fd	21.855463
228	0xc12d7baa	-10.842691
229	0x3d204f79	0.03913829
230	0xbca89c0b	-0.02058222
231	0xc0d68c7a	-6.704648
232	0xc0d719a9	-6.7218823
233	0x4017d3d5	2.3723042
234	0x3d49e1d5	0.049287636
235	0xbfe0f6ae	-1.7575281
236	0x416d8e6e	14.847273
237	0x4115e092	9.367327
238	0x408aa482	4.3325815
239	0xc10ad4d5	-8.676961
240	0x418fc558	17.97136
241	0xc07a513d	-3.9112084
242	0x3d853277	0.06503766
243	0x3e60dfb4	0.21960336
244	0x4109c0e0	8.609589
245	0x41b78224	22.938545
246	0xbd49902d	-0.049209762
247	0x3d8bb00b	0.06820687
248	0xc11ee95c	-9.9319725
249	0x3d855b61	0.0651157
250	0x41aaff41	21.374636
251	0x40067903	2.101136
252	0xc119006a	-9.562601
253	0x3c6187af	0.01376526
254	0xbd86b135	-0.06576768
255	0xbce489e1	-0.027897777

fc2.weight f4 [256, 256]
0	0xbd96fd32	-0.07372512
1	0x3af82d59	0.0018934413
2	0x3cbc4674	0.022982813
3	0xbc281fee	-0.010261519
4	0xbd4763ad	-0.048679043
5	0x3d99b7a0	0.07505727
6	0xbdac8639	-0.084240384
7	0xbddec47d	-0.10877321
8	0x3d8626df	0.06550383
9	0xbf958c22	-1.168339
10	0xbbb8859c	-0.005631162
11	0x3d46f6a6	0.048575066
12	0x3d58fb42	0.052973993
13	0x3add7f28	0.0016898857
14	0xbdf03692	-0.117291585
15	0x3d8d2907	0.06892591
16	0xbd89f123	-0.06735446
17	0xbc5af45c	-0.013363924
18	0xbeb959ed	-0.3620142
19	0x3c7ec071	0.015548811
20	0xbc143796	-0.009046456
21	0x3d9944b8	0.0748381
22	0x3b280e9e	0.0025643478
23	0xbc1cad44	-0.009562794
24	0x3dfe7a91	0.124257214
25	0xbc296a5c	-0.010340299
26	0xbbac8fa2	-0.005266146
27	0xbedc2f6d	-0.43004933
28	0xbfbbdfa4	-1.4677625
29	0x3d4472c6	0.04796102
30	0xbe8e7e80	-0.27830887
31	0x3beb2345	0.0071758353
32	0x3e86e121	0.26343635
33	0xbcf25881	-0.029583218
34	0x3d8c0d8b	0.068385206
35	0x3d0162f6	0.031588517
36	0x3dc33f4b	0.095335566
37	0xbb09f10b	-0.0021048214
38	0x3aaf0230	0.0013352092
39	0xbcebc132	-0.028778646
40	0x3dc5f966	0.096667096
41	0x3bab94aa	0.005236228
42	0x3d80e440	0.06293535
43	0x3d5efe76	0.05444189
44	0x3f1ef502	0.620926
45	0xbc421cb1	-0.011847661
46	0x3b8b3b11	0.0042489846
47	0xbcd6f74f	-0.026240973
48	0xbc134975	-0.0089896815
49	0x3b889011	0.0041675647
50	0x3d4256c4	0.047446027
51	0x3c82d2b4	0.015969612
52	0x3c3f0e5e	0.01166114
53	0xbee8e7d5	-0.45489374
54	0xbeedfbbf	-0.4648113
55	0xbc5d9153	-0.0135234175
56	0x3c5486ff	0.012971639
57	0x3e1f2ff7	0.15545641
58	0x3d088c2b	0.0333368
59	0x3b4dbf65	0.0031394598
60	0x3b926757	0.0044678855
61	0x3c30b424	0.010785136
62	0x3c7ed99c	0.015554812
63	0xbea623d0	-0.32449198
64	0x3b00a3c8	0.0019628871
65	0x3abdc880	0.0014479309
66	0x3b127b24	0.002235123
67	0x3d88124b	0.06644114
68	0x3bc4cc4f	0.006005801
69	0x3dad3855	0.0845801
70	0x3d910198	0.07080382
71	0x3de7f1c2	0.113254085
72	0xbd82eb60	-0.063925505
73	0x3d1e9775	0.03871866
74	0xbc0f0402	-0.008728983
75	0xbf05e983	-0.52309436
76	0xbd28bcfa	-0.041195847
77	0x3dd23375	0.10263721
78	0x3c71c754	0.014756996
79	0x3c49ff60	0.012328953
80	0x3da81afa	0.0820827
81	0xbfc5e004	-1.5458989
82	0x3e01d4a3	0.1267877
83	0xbd86cc38	-0.065819204
84	0x3d6d1bcc	0.057887837
85	0x3d95915f	0.07303118
86	0x3bc82f39	0.006109145
87	0xbc0fe20d	-0.008781922
88	0x3dfb1f0d	0.12261782
89	0x3d056c82	0.032574184
90	0xbb045296	-0.0020190827
91	0x3bc352e2	0.005960808
92	0x3d7d2522	0.06180299
93	0x3d61fed1	0.055174652
94	0xbc336d18	-0.010951303
95	0x3e7e0524	0.24806648
96	0x3d0fd49f	0.03511488
97	0x3d73f01f	0.05955517
98	0x3c02975a	0.007970655
99	0xbb411e58	-0.002946755
100	0x3d87a466	0.066231534
101	0x3c114aa3	0.008867892
102	0xbba29eb3	-0.004962766
103	0x3e860464	0.26175225
104	0x3c284b64	0.010271881
105	0x3e8d39ea	0.27583247
106	0xbb9335b1	-0.0044924845
107	0x3d227e91	0.039671484
108	0xbd84c36f	-0.064825885
109	0x3d9e6275	0.07733623
110	0xbb4d102e	-0.0031290161
111	0x3e464991	0.19364001
112	0x3df24816	0.118301556
113	0xbd90f129	-0.07077248
114	0x3de6aeaf	0.11263787
115	0x3d7e0aa5	0.06202187
116	0x3beea784	0.007283153
117	0x3d86e6f6	0.06587021
118	0x3d8b9bcb	0.068168245
119	0x3c2702f3	0.010193574
120	0xbe30eaf5	-0.17277129
121	0x3d922b9e	0.071372256
122	0x3dc2e8ff	0.09517097
123	0x3c4d2089	0.012519964
124	0x3d95fcf3	0.07323637
125	0x3d525549	0.051350866
126	0x3cd5b948	0.026089326
127	0x3d96fe72	0.0737275
128	0x3d6c4b04	0.057688728
129	0x3db8efa4	0.09030083
130	0xbb7afcf3	-0.0038297742
131	0x3d0b152e	0.033955745
132	0x3d7a2fa8	0.061080605
133	0xbac38572	-0.0014917089
134	0x3b392c2b	0.0028255086
135	0x3da6f18e	0.08151542
136	0x3d2038e1	0.039116744
137	0xbc01bb7e	-0.007918237
138	0x3d408fa0	0.04701197
139	0xbe2a881b	-0.16653483
140	0x3bce4857	0.0062952447
141	0x3d97bb73	0.074088
142	0xbc31d8ed	-0.010854942
143	0x39e3e0a5	0.00043464187
144	0x3bf12252	0.0073588276
145	0x3d835bbc	0.06413981
146	0x3c34497e	0.01100385
147	0x3c302c03	0.010752681
148	0x3d8f313a	0.06991811
149	0x3d40e68a	0.04709486
150	0x3ea7e6ae	0.32793182
151	0x3d157c51	0.03649551
152	0x3d92e44f	0.07172453
153	0xbbcc9248	-0.006243024
154	0x3cb4e7eb	0.022083243
155	0x3d50a9ab	0.050943058
156	0x3cc09db0	0.023512691
157	0xbffb0492	-1.961077
158	0xba05d7af	-0.0005105687
159	0x3c2b8f1b	0.010471131
160	0xbb92ec6a	-0.004483749
161	0x3dd036c6	0.10166697
162	0xbbd943f1	-0.0066304137
163	0x3d4bec57	0.049785938
164	0x3d64666a	0.055761732
165	0xc0189954	-2.3843584
166	0x3d4d6484	0.050144687
167	0x3da7d0cb	0.08194121
168	0xbd4b605a	-0.049652435
169	0xbeff843d	-0.49905577
170	0x3d9a9291	0.075474866
171	0x3b47b585	0.0030473184
172	0x3db4338e	0.08798896
173	0xbbc4c43f	-0.0060048397
174	0x3d6c8cc7	0.057751443
175	0x3cbacbb2	0.022802208
176	0xbba129fd	-0.0049183355
177	0xbc1aa399	-0.009438419
178	0x3c497cea	0.012297848
179	0x3c3bf0cb	0.011470984
180	0xbb88e65e	-0.0041778525
181	0x3d28fb52	0.041255303
182	0xc005ffbc	-2.0937338
183	0x3e35e5dd	0.17763467
184	0x3db0ee62	0.08639218
185	0x3de4f889	0.11180217
186	0x3dfee897	0.12446707
187	0xbae351e0	-0.0017343126
188	0x3bacf664	0.0052783955
189	0x3d4b2335	0.049594123
190	0x3d6e45f3	0.058172178
191	0xbd82a9df	-0.063800566
192	0x3d2bcc23	0.041942727
193	0xbc18fc9a	-0.009337569
194	0xbc884be5	-0.016637752
195	0xbc3e9ba9	-0.011633792
196	0xbcd978b1	-0.026546808
197	0x3ccfb929	0.025356846
198	0xbb5d300d	-0.0033750564
199	0x3a5cdce8	0.00084252516
200	0xbfa1916c	-1.2622504
201	0xbcae9f76	-0.021316271
202	0xbdaf8880	-0.08570957
203	0x3d18eb3c	0.037333712
204	0x3c35c55e	0.011094419
205	0x3d2c87d5	0.042121727
206	0xbab5dbb5	-0.0013874682
207	0x3bb6db4f	0.005580343
208	0x3c1407dd	0.009035078
209	0x3cc965a4	0.024584599
210	0xbed4d5b8	-0.41569304
211	0x3a6569ac	0.0008751403
212	0x3d2fcdcf	0.042920884
213	0x3d6485af	0.055791553
214	0x3b83f128	0.004026551
215	0x3cc149f7	0.02359484
216	0x3d970cdc	0.073754996
217	0x3d28c365	0.041201968
218	0x3d7d98cf	0.061913308
219	0x3c0c51fa	0.008564467
220	0xbff0e1d9	-1.8818923
221	0xbc0f4d84	-0.0087465085
222	0xb98805e1	-0.00025944322
223	0x3bc5f4b8	0.0060411356
224	0xbbf4c043	-0.0074692084
225	0x3bec5f55	0.007213513
226	0x3c2aefb8	0.01043313
227	0x3cfe9acf	0.031079678
228	0xbd834b7a	-0.064108804
229	0x3ba16bfc	0.004926203
230	0xbbba06ef	-0.005677096
231	0x3b9e3b06	0.0048288135
232	0x3a961e5b	0.0011453138
233	0x3ded3ee6	0.115842625
234	0xbc8b94f4	-0.0170388
235	0xbc5e7da9	-0.013579764
236	0x3db9b90e	0.090684995
237	0x3da477b8	0.08030647
238	0x3c90c22d	0.017670715
239	0xbee5f430	-0.44912863
240	0x3d8c0b36	0.06838076
241	0xbc9f3347	-0.01943363
242	0xbc209116	-0.009800216
243	0x3d952b35	0.07283632
244	0x3ccb2c0b	0.024801275
245	0x3d54e50e	0.051976256
246	0xbc0f3e30	-0.008742854
247	0x3c3a0756	0.011354288
248	0xbec0737a	-0.37588102
249	0xbc17291e	-0.009226112
250	0x3d791120	0.060807347
251	0x3cebeb35	0.028798679
252	0xbf7a1ad4	-0.97697186
253	0xbc44c83f	-0.012010633
254	0xbc1b8f1b	-0.009494568
255	0xbcf3f643	-0.029780513

fc2.bias f4 [256]
0	0x4176e034	15.429737
1	0x3b310b42	0.0027014767
2	0xbcab6698	-0.020922944
3	0xbb4acefd	-0.0030946129
4	0x41260399	10.375878
5	0x3c06c067	0.008224583
6	0x41843df8	16.530258
7	0x3996a9ce	0.00028736744
8	0xbb3cd394	-0.0028812634
9	0x4031814f	2.7735174
10	0x3b6503db	0.0034944925
11	0xbc3c3aaa	-0.011488596
12	0x41565e7f	13.39807
13	0x3e732477	0.23744379
14	0xbc8e170c	-0.017344974
15	0xc1b4d436	-22.603619
16	0xbc0d0d30	-0.008609101
17	0x405d4e95	3.4579213
18	0x3b58697b	0.0033021856
19	0x4166efcd	14.433545
20	0x3b8cc76a	0.004296233
21	0xbc39b0ba	-0.011333639
22	0xbbd10e1f	-0.006379857
23	0xbb08e1fe	-0.0020886655
24	0xbc0cfc00	-0.008605003
25	0x3c3168a6	0.010828173
26	0xb95d251d	-0.00021090028
27	0xbc06ae7e	-0.008220313
28	0xbb583c86	-0.003299506
29	0xbc977999	-0.0184906
30	0xc07f290c	-3.9868803
31	0xbb692c28	-0.0035579298
32	0x3aeceb15	0.0018075431
33	0xbc386781	-0.011255146
34	0x41598299	13.594384
35	0x4164bf36	14.296682
36	0xbb4f1864	-0.0031600231
37	0xbbf83c77	-0.0075755673
38	0xbba53b2d	-0.0050424547
39	0x3c1f17ae	0.0097102355
40	0x41d77fd0	26.937408
41	0x4108d75e	8.55258
42	0x3daf60a2	0.08563353
43	0xbcfa94d5	-0.030588547
44	0xc0afb9c2	-5.4914255
45	0x41632ca1	14.198396
46	0x4076c166	3.855554
47	0xbc270da6	-0.010196125
48	0x40515d34	3.2713137
49	0xc07fb0fd	-3.9951775
50	0xc0ed0592	-7.40693
51	0x3d343bb8	0.044002265
52	0xbba3d729	-0.0050000143
53	0x410be237	8.742728
54	0xbc771c78	-0.015082471
55	0xbc798591	-0.015229599
56	0xbaa0733c	-0.0012241374
57	0xbaf0bf37	-0.0018367533
58	0xbc24f636	-0.010068467
59	0xbc746159	-0.014915788
60	0xbc6d7571	-0.014493332
61	0xbc1f588b	-0.0097257
62	0xbae861f0	-0.0017729383
63	0xbba9bf72	-0.0051802928
64	0xc029ef85	-2.655244
65	0xbacb68c5	-0.0015518895
66	0x3aac581d	0.0013148818
67	0x3b9400e0	0.004516706
68	0xbb9e8fdb	-0.0048389263
69	0xbca93449	-0.020654814
70	0xbba63c50	-0.005073108
71	0x415f565b	13.958583
72	0xbc913f15	-0.017730275
73	0x40bb6dcd	5.8571534
74	0xbc61e36e	-0.013787134
75	0xbc41575a	-0.011800611
76	0x3fefef95	1.874499
77	0xc0b83bdc	-5.757307
78	0xc1b57d92	-22.686314
79	0x3beb771a	0.007185829
80	0xbc82bbab	-0.015958628
81	0x3bcd5fa1	0.0062675034
82	0x41e68399	28.814257
83	0xbbc5559b	-0.006022168
84	0x4107f55c	8.497402
85	0xc1cffce1	-25.998476
86	0x3ca6323f	0.020287631
87	0x3b020540	0.0019839555
88	0xbfd992ba	-1.6997902
89	0x40d73f9f	6.7265162
90	0x3fd71822	1.680424
91	0x3a7f4dbc	0.00097390614
92	0x41248685	10.282842
93	0xc1566889	-13.400521
94	0xbb7e86e3	-0.0038837723
95	0x40d78998	6.735546
96	0x3a24b7e9	0.0006283508
97	0x3be60ad5	0.0070203342
98	0xc15746b6	-13.454763
99	0xbf01b42c	-0.50665545
100	0xb96cc563	-0.00022580246
101	0x3b9ba3bb	0.004749743
102	0xbc259631	-0.010106609
103	0xbc7a9185	-0.015293484
104	0xbc941b03	-0.018079286
105	0x41a9834f	21.189116
106	0x3c352f03	0.011058572
107	0x41a29e9a	20.327442
108	0xc18d0674	-17.62815
109	0x411ea56d	9.915387
110	0x3a919f53	0.0011110104
111	0x40dbae47	6.865024
112	0xbbae1b9d	-0.0053133504
113	0xbbfd4db4	-0.00773021
114	0x3c11dcb3	0.008902716
115	0x414c9331	12.785935
116	0xc0963cfa	-4.6949434
117	0xbc49b526	-0.012311256
118	0x416092e0	14.035858
119	0x3b7e7a78	0.0038830321
120	0xc04358cb	-3.0522945
121	0xbfd99342	-1.6998065
122	0xbc14c285	-0.00907958
123	0xbbd5de1a	-0.0065267207
124	0x3ab60209	0.0013886105
125	0x4047cc53	3.121846
126	0x4143cf80	12.238159
127	0xbad2b3d1	-0.0016075318
128	0xbb1b4635	-0.002369297
129	0xbc585cce	-0.01320572
130	0xc16e489c	-14.892727
131	0x41a6c433	20.8458
132	0xbc8c7686	-0.01714636
133	0x4128fb55	10.56136
134	0xbcffe298	-0.031235978
135	0xbc132461	-0.008980841
136	0x3b811028	0.0039386936
137	0x39c86417	0.00038221545
138	0x3e9b82e2	0.30373293
139	0xbbbbef39	-0.0057353047
140	0xbcadfa1b	-0.021237424
141	0xc1941c90	-18.513947
142	0xc18e33c2	-17.775272
143	0xbc248490	-0.010041371
144	0xbca7e589	-0.020495193
145	0x41c43e33	24.53037
146	0xbc19e481	-0.0093928585
147	0x3b9e6499	0.0048337695
148	0x3e02572a	0.12728563
149	0x3b4fe73b	0.0031723517
150	0xbc562b38	-0.013071828
151	0x3bb8174f	0.005618013
152	0x413d4d0c	11.83131
153	0xbdd2d873	-0.10295191
154	0x3c24e3e3	0.010064098
155	0xbc37eaaf	-0.0112253865
156	0xbc696110	-0.014244333
157	0x41106356	9.024252
158	0x3b9c2495	0.004765103
159	0x41140439	9.251031
160	0xbb402ad4	-0.0029322403
161	0xbc9b8fe8	-0.018989518
162	0xbbb88e00	-0.005632162
163	0xc12c7269	-10.777932
164	0x3ce2afa5	0.027671644
165	0xbc8b7e7a	-0.017028082
166	0xbb4cc2c6	-0.0031244024
167	0x3c30c5f4	0.010789383
168	0xbc0d0921	-0.0086081335
169	0x3bb88f96	0.005632351
170	0xbb8c30ff	-0.0042783017
171	0x3a67ae51	0.0008837926
172	0x40cd5113	6.4161468
173	0xbc167856	-0.009183964
174	0xc1aaf851	-21.371248
175	0xc1ab9e7c	-21.452385
176	0xbbe511ff	-0.0069906707
177	0xc19883e5	-19.064402
178	0x3b7e4b00	0.0038802028
179	0xb9f7ff2d	-0.00047301632
180	0x3c2953aa	0.0103348885
181	0xbc438c64	-0.011935327
182	0x406bdc25	3.6853116
183	0x3af08519	0.0018350213
184	0x3ad0122d	0.0015874557
185	0x3ab34890	0.0013678242
186	0x4077945f	3.8684309
187	0xbe8bba1e	-0.27290434
188	0x3b31bb91	0.0027119855
189	0xbb178f85	-0.0023126316
190	0x3c46ace3	0.01212618
191	0x41816ed0	16.179108
192	0x41ab9c17	21.451216
193	0x3ce1ccc1	0.027563455
194	0x412e2b9d	10.885648
195	0x41a8b0ff	21.086424
196	0x41b2c8e5	22.348093
197	0x415a7afc	13.6550255
198	0xba344748	-0.0006877077
199	0xbc3dc5c1	-0.011582793
200	0x3e0438e4	0.12912327
201	0x41e154fa	28.166492
202	0xbb311ec4	-0.0027026394
203	0x417016d7	15.005576
204	0x41678d69	14.472024
205	0xbb33fa85	-0.0027462554
206	0xc127bfb9	-10.484307
207	0xbc11014f	-0.00885041
208	0x4135e5e6	11.368628
209	0xbc1dacc0	-0.009623706
210	0xbc5f9ac5	-0.01364774
211	0xbb1f2390	-0.0024282672
212	0x40415976	3.0210853
213	0xc02ef2d4	-2.733571
214	0x3bf9a55a	0.0076185884
215	0xbc531822	-0.012884172
216	0x410cdfe5	8.804662
217	0x3b946111	0.004528173
218	0x3c0e04a5	0.0086680995
219	0x3b759dab	0.003747801
220	0xbc646d9c	-0.013942149
221	0x3b05ae49	0.0020398072
222	0xbabab1d1	-0.0014243667
223	0xbcaa3c64	-0.02078075
224	0x3d703c7e	0.05865144
225	0xbaaee96a	-0.0013344709
226	0x414fc762	12.986177
227	0x3bb71a48	0.0055878498
228	0xbc81652b	-0.015795311
229	0x41c49f23	24.577703
230	0x414e2dc8	12.886177
231	0xbc3f1513	-0.011662739
232	0xc096367b	-4.6941504
233	0xbc20bed7	-0.009811125
234	0xbcdafebc	-0.026732795
235	0xbc5af1af	-0.013363286
236	0xbbb64962	-0.005562947
237	0x41bcf336	23.618755
238	0xc055c1c8	-3.3399525
239	0x3ca7f502	0.020502571
240	0xbc3e93af	-0.01163189
241	0x3be6c4e5	0.0070425146
242	0x41be0463	23.752142
243	0xbbb733d2	-0.0055908943
244	0xbb2bb833	-0.002620232
245	0xc1715c54	-15.085041
246	0x3f9cbbc7	1.2244805
247	0x3b049b59	0.0020234196
248	0xc195a5fd	-18.706049
249	0x3b2fb523	0.0026810847
250	0x40bbd145	5.8692956
251	0xc12f3ff7	-10.953116
252	0x41cf8a2b	25.942465
253	0xbb7cc974	-0.0038572224
254	0xbba1a847	-0.0049333903
255	0xbc5d7d9f	-0.01351872

fc3.weight f4 [256, 256]
0	0x3e7fc285	0.24976547
1	0xbc54f35d	-0.012997475
2	0x3c52e203	0.012871268
3	0xbb364d14	-0.0027816938
4	0x3f0f71fa	0.5603329
5	0x3c1a791d	0.00942829
6	0x3def2108	0.11676222
7	0xbc112b44	-0.008860413
8	0xb9e748c6	-0.00044113974
9	0x3f11ddf4	0.569793
10	0xbb799bad	-0.0038087175
11	0x3c77d4ac	0.0151263885
12	0xbcb859d8	-0.022503778
13	0xbc087b8c	-0.008330237
14	0xbc1c5469	-0.009541609
15	0x3e242224	0.16028649
16	0x3c7decef	0.015498384
17	0x3f1c9113	0.61158866
18	0xbc91e95c	-0.01781147
19	0x3dcdc805	0.10047916
20	0xbb2ede69	-0.002668286
21	0x3b72c012	0.0037040752
22	0xbba5a167	-0.005054641
23	0xbadeb061	-0.0016989821
24	0x3c644029	0.013931313
25	0x3b2b96ee	0.002618249
26	0xbb537244	-0.0032264153
27	0xbb9c2be0	-0.0047659725
28	0x3be2924d	0.006914413
29	0xbc32168c	-0.010869633
30	0x3e99e9b3	0.3006111
31	0x3bca9d1f	0.006183281
32	0x3c61afe3	0.013774845
33	0xbc710615	-0.014710923
34	0x3f2dca1c	0.6788652
35	0x3e4dc6e8	0.20095408
36	0xbc595adf	-0.013266294
37	0xbbbefd3d	-0.005828528
38	0xbc4416df	-0.0119683435
39	0xba1efdf6	-0.0006065065
40	0x3d7e864a	0.062139787
41	0x3e055a1c	0.13022655
42	0x3a2e100b	0.0006639964
43	0xbc792a68	-0.015207864
44	0x3c65c556	0.014024099
45	0x3e8d51ef	0.27601573
46	0x3ef5017e	0.478527
47	0xbc943d79	-0.018095719
48	0x3edc6615	0.43046632
49	0x3c13afeb	0.00901411
50	0x3d311a4d	0.043237973
51	0xbbf07fec	-0.007339468
52	0xbb7e0fc7	-0.0038766728
53	0x3e38fb99	0.18064727
54	0xbc95acff	-0.018270968
55	0xbbbe63f3	-0.0058102547
56	0x3b5b6e1a	0.0033482374
57	0x3ba8b389	0.0051483554
58	0x3bbabd08	0.005698804
59	0x3bebc241	0.0071947877
60	0xba0c7503	-0.0005358012
61	0x3bbd9004	0.0057849903
62	0xbbeee231	-0.0072901477
63	0xbb9a79f5	-0.0047142454
64	0xbd45ee9f	-0.04832327
65	0x3caa9d79	0.020827042
66	0xbba37040	-0.0049877465
67	0x3bfbe2bb	0.0076869405
68	0x3bf10e37	0.007356431
69	0xbc9e4051	-0.019317778
70	0x3bc2fa91	0.00595028
71	0xbf61a1af	-0.88137335
72	0xb8c1afb7	-9.2356866e-05
73	0x3dca18c7	0.09868007
74	0xbb044782	-0.0020184224
75	0x3b5b84b5	0.0033495848
76	0x3f18c956	0.59682214
77	0x3e7e0f64	0.24810559
78	0x3e308f60	0.17242193
79	0xbc47d1a4	-0.012195978
80	0xbb553f22	-0.003253885
81	0x3b74343f	0.0037262586
82	0x3daf32e6	0.0855463
83	0xbbdfe647	-0.006832871
84	0x3e285df9	0.16442098
85	0x3e815d37	0.2526643
86	0x3c0a7a50	0.008452013
87	0x3aa845ba	0.0012838163
88	0x3ec919a2	0.3927737
89	0x3e50b672	0.20382097
90	0x3ea8e52f	0.32987353
91	0xbc81e054	-0.015854038
92	0x3e535101	0.2063637
93	0x3d99328a	0.07480343
94	0xbc24e8ac	-0.010065239
95	0x3e16d53f	0.14729784
96	0xba6b257d	-0.0008970125
97	0x3c27a19d	0.010231403
98	0xbdd1bd21	-0.102411516
99	0x3ef4463e	0.4770984
100	0xbaca061e	-0.00154132
101	0xba4e73fc	-0.00078755594
102	0x3c83325a	0.01601522
103	0xbc87fac6	-0.01659907
104	0x3c6eede9	0.014583089
105	0x3e10618e	0.14099714
106	0xbc21b148	-0.009868927
107	0xbeaf3f8b	-0.34228167
108	0x3e8961ba	0.26832372
109	0x3e55a296	0.20862803
110	0x3b08e782	0.0020889943
111	0x3e86d25a	0.2633236
112	0x3c0e7d7b	0.008696909
113	0x3bbb6389	0.0057186526
114	0x3c5d3ca3	0.013503226
115	0x3e90ab53	0.2825571
116	0xbd1a3171	-0.037644807
117	0xbaee282f	-0.0018169935
118	0xbf5216a0	-0.82065773
119	0xbc2102f8	-0.009827368
120	0x3ee97015	0.45593324
121	0x3ebb3872	0.36566502
122	0x3bbfffa9	0.0058593345
123	0x3acc30fc	0.0015578563
124	0xbb74c255	-0.0037347276
125	0x3eedc492	0.46439034
126	0x3f435c9e	0.763132
127	0xba535743	-0.0008062014
128	0xbb05480b	-0.002033713
129	0x3c741969	0.014898636
130	0x3dc3450e	0.095346555
131	0x3de192f2	0.11014356
132	0x3c10c179	0.00883519
133	0x3fa2491f	1.2678565
134	0xbcf81cb9	-0.030287134
135	0xbc1b05ed	-0.009461862
136	0xbc6d254e	-0.014474226
137	0x3c64ea7a	0.013971919
138	0x3c29c71f	0.010362416
139	0xbbf449f4	-0.007455105
140	0xbc740529	-0.014893808
141	0x3eca2212	0.3947912
142	0x3f0b32ce	0.54374397
143	0xba0c0ca8	-0.0005342462
144	0xbb80b0bf	-0.00392732
145	0x3d564d94	0.052320078
146	0x3bf09429	0.007341881
147	0x3c3e3f23	0.011611733
148	0x3c27d466	0.010243511
149	0x3c7fb2b4	0.015606571
150	0xbbbc0bd1	-0.0057387133
151	0xbb83511a	-0.004007471
152	0x3f0b7043	0.5446817
153	0xbd2dd6fa	-0.042441346
154	0x3c627f8f	0.013824358
155	0x3bbbe940	0.0057345927
156	0x3c2f7b23	0.01071051
157	0x3e1d1d9b	0.15343325
158	0x3c510bdd	0.012759176
159	0x3dfe0f00	0.12405205
160	0x3b0ab2ab	0.0021163623
161	0x3c4c954e	0.012486769
162	0xbc1bb8fc	-0.009504553
163	0x3e57ee91	0.210871
164	0x3bc32c00	0.005956173
165	0xb9b39dda	-0.0003425915
166	0x3a8c8acc	0.0010722517
167	0x3c29b612	0.01035835
168	0xba9e9cb3	-0.0012101143
169	0xbc27fb5a	-0.010252798
170	0xbc1c0f68	-0.0095251575
171	0xb9f499ba	-0.00046653842
172	0x401f3cf9	2.4880965
173	0xbc1b1c47	-0.009467191
174	0x3dbfabb7	0.09358924
175	0x3d9dc515	0.07703606
176	0x3badf83d	0.0053091333
177	0x3c3087c3	0.010774556
178	0xbaa61d93	-0.0012673609
179	0x3b112ab9	0.0022150709
180	0x3c131397	0.008976839
181	0x3c45bcbb	0.012068923
182	0x3da44e32	0.08022727
183	0xbc772a8f	-0.01508583
184	0x3982902b	0.00024902946
185	0x3c80559f	0.015665827
186	0x3ef1b155	0.47205606
187	0xbf2aca99	-0.6671539
188	0x3b3eadd4	0.002909531
189	0x3aa3dbeb	0.0012501454
190	0xbc2524f6	-0.010079613
191	0x3e237f14	0.15966445
192	0x3d9cc834	0.07655373
193	0xbc524981	-0.0128349075
194	0x3d707b3a	0.058711268
195	0x3e00c0e7	0.12573586
196	0xbf405ed7	-0.75144714
197	0x3e915675	0.28386274
198	0x3b9a3703	0.004706265
199	0xbad1fee7	-0.0016021401
200	0xbbe13597	-0.0068728435
201	0x3d50c944	0.05097319
202	0x3b467ff2	0.0030288664
203	0x3e333302	0.17499927
204	0x3e03ceb5	0.12871821
205	0xbb9fee58	-0.0048807077
206	0x3ea65d42	0.32493025
207	0xbc7dadac	-0.015483301
208	0x3e3a371f	0.1818509
209	0xbc04e075	-0.008110155
210	0xbc97f7bf	-0.018550752
211	0x3c1d14b7	0.009587458
212	0xbe456761	-0.19277717
213	0xbd9802df	-0.074224226
214	0x3bbca3c3	0.0057568266
215	0xbc66a712	-0.014077919
216	0x3d224052	0.039612122
217	0xbb856697	-0.0040710676
218	0xbbbb69f5	-0.005719418
219	0xbc61dd12	-0.013785617
220	0x3b3cfec7	0.0028838383
221	0x3ad52e86	0.0016264475
222	0x3c235a51	0.009970264
223	0xbc8822c7	-0.016618146
224	0x3c9f9082	0.019478086
225	0x3c2f7f58	0.010711513
226	0x3e6fcc0a	0.23417678
227	0xbab0d722	-0.0013491849
228	0x3a45b3ab	0.0007541726
229	0x3d9fbdf4	0.077999026
230	0x3eadc892	0.33942086
231	0xbc4b1906	-0.012396103
232	0x3ee5b787	0.44866583
233	0xbc84913b	-0.016182533
234	0xbb3e7f5d	-0.0029067614
235	0xbaf44a94	-0.0018637949
236	0xbbcb6846	-0.0062074987
237	0x3da35cd0	0.07976687
238	0xbe063e19	-0.13109626
239	0x3a712c10	0.0009199986
240	0xba29c19b	-0.0006475688
241	0x3c02730b	0.007961999
242	0x3e164bac	0.14677304
243	0xbb8e1e99	-0.0043371436
244	0x3b9ec753	0.0048455386
245	0x3df3976b	0.11894115
246	0x3cda766b	0.026667794
247	0xbc30894b	-0.010774921
248	0x3e6bbc98	0.23021162
249	0x3ab936cc	0.0014130711
250	0x3db62dd9	0.088954635
251	0x3e9084ed	0.28226414
252	0x3f28e11b	0.65968484
253	0x3b0a455d	0.0021098473
254	0x3c37f776	0.011228433
255	0x3b70101d	0.0036630698

fc3.bias f4 [256]
0	0x415b9094	13.722797
1	0x41cbebbf	25.49011
2	0xc167a515	-14.477803
3	0xbcaba9ab	-0.020954927
4	0x416a1322	14.629671
5	0x3a9e57b4	0.0012080581
6	0x4121f5bf	10.122497
7	0xbc71702e	-0.014736218
8	0xbad75972	-0.0016429855
9	0xbce62f85	-0.028098831
10	0xbd2e62fa	-0.04257486
11	0x3c1082ab	0.008820216
12	0x3b790a7a	0.003800063
13	0xc10e55a6	-8.89591
14	0x413b2f93	11.699115
15	0x410b6927	8.713172
16	0x417213fd	15.12988
17	0x417b736c	15.715679
18	0x3bb04407	0.0053792032
19	0x415b4b62	13.705904
20	0xbc9b8b96	-0.018987458
21	0xbc11938f	-0.008885278
22	0xbc2a095a	-0.010378206
23	0x3ca71640	0.020396352
24	0xbbf0703f	-0.0073375995
25	0xbc79ff14	-0.015258569
26	0xbbf0e3de	-0.0073513826
27	0xbc7217bd	-0.014776167
28	0x3bbc326e	0.0057433164
29	0x41862f8a	16.773212
30	0x3b8b3a00	0.0042488575
31	0x4099e563	4.8092513
32	0x415d8fa2	13.847567
33	0xba0d96da	-0.0005401202
34	0x3b05c3ca	0.0020410889
35	0xbc81381a	-0.015773822
36	0x3c020173	0.007934916
37	0x41b79b43	22.950811
38	0xc133656f	-11.212264
39	0x413ab870	11.670029
40	0x410836be	8.513365
41	0x3c2fd170	0.010731086
42	0x413f22ea	11.946024
43	0x41656293	14.336566
44	0x4151fb15	13.123799
45	0xbc84bd79	-0.016203629
46	0xbcb3bebd	-0.021941537
47	0x41678e78	14.472282
48	0xc17900b1	-15.562669
49	0x4143d36a	12.239115
50	0x4148af7d	12.542844
51	0xbc701a4f	-0.01465471
52	0x3d4c1922	0.049828656
53	0x4173fcdb	15.249232
54	0x4139b01b	11.6054945
55	0x417ae143	15.679996
56	0x3bda9bb9	0.0066713956
57	0xbb95b398	-0.0045685284
58	0x3bf6f567	0.0075365785
59	0xc1b1e1eb	-22.235312
60	0x3b157f46	0.0022811457
61	0x3b0f967d	0.0021909766
62	0xbcce8ac3	-0.025212651
63	0xbcd4d6b3	-0.025981283
64	0xbc8f6829	-0.017505722
65	0xbc9d5d1f	-0.019209443
66	0x4115cffc	9.363277
67	0xbb85dc68	-0.0040851124
68	0xbc69feff	-0.014281987
69	0xbc833e28	-0.01602085
70	0xbc6a83a1	-0.014313609
71	0x41530764	13.189304
72	0x4162bf0f	14.171645
73	0x417ee413	15.930682
74	0xbc81a039	-0.01582347
75	0xbc3b8e1f	-0.0114474585
76	0x414e8132	12.906542
77	0xbc811bcf	-0.01576033
78	0x414eef95	12.933492
79	0x41590402	13.563478
80	0x3e387089	0.18011679
81	0x41540cec	13.253155
82	0xc08e0a57	-4.438762
83	0xbb14e4d0	-0.002271939
84	0x4180009c	16.000298
85	0xbbb2d2b2	-0.0054572457
86	0xbbf4f139	-0.007475045
87	0xba91c7b3	-0.0011122137
88	0xbbbbc06e	-0.0057297265
89	0x413fe348	11.992989
90	0x3c0f311f	0.008739739
91	0x3c9f915f	0.019478498
92	0xc1692f93	-14.574115
93	0xbc6b31d1	-0.014355139
94	0x41689678	14.536736
95	0xbc5785b0	-0.013154432
96	0x4144a079	12.289178
97	0x4150be3d	13.046445
98	0x418c1ecf	17.515043
99	0x3bdfa307	0.0068248543
100	0x3bef98ce	0.007311917
101	0x3c8ec2c9	0.017426865
102	0xbc5cdc73	-0.013480294
103	0x3c7849d2	0.015154319
104	0x41820b29	16.25545
105	0x415a7501	13.653565
106	0xbc0dfedb	-0.008666719
107	0xbbee17da	-0.007266027
108	0xbb32d535	-0.0027287726
109	0xc15c203a	-13.757868
110	0x401ce0d1	2.4512217
111	0x3a521139	0.00080134306
112	0x41543090	13.261856
113	0x41589495	13.536275
114	0x3b1b8152	0.0023728204
115	0xbc84e195	-0.016220847
116	0x4138930d	11.535901
117	0x41201ee9	10.007546
118	0x39a88d48	0.0003214872
119	0xbaa77700	-0.0012776554
120	0x3bec23a9	0.0072063995
121	0xb99be4ee	-0.0002973447
122	0xbbb962da	-0.005657536
123	0xbc34b216	-0.011028787
124	0x3c55b604	0.013043884
125	0xbcb691d3	-0.022286331
126	0x3ad61c4a	0.0016335335
127	0x415bea84	13.744755
128	0x3b4d5a2e	0.003133427
129	0x415758d8	13.45919
130	0xc1125a30	-9.147018
131	0xbcc5cef9	-0.024146544
132	0xbc48e385	-0.012261276
133	0x3757196e	1.2820919e-05
134	0x3be5ef22	0.0070170322
135	0xc13879e4	-11.529758
136	0xc14ad1a5	-12.676183
137	0xbcceff46	-0.025268208
138	0xbcb5b0b2	-0.022178981
139	0x3e6875ca	0.22701183
140	0xbb401157	-0.002930721
141	0xbcb47e83	-0.022032982
142	0xbd37521f	-0.04475605
143	0xbbba38c5	-0.005683037
144	0xbb6e9165	-0.003640258
145	0x415047cd	13.0175295
146	0x416e4a09	14.893075
147	0x3b193aad	0.002338092
148	0x415bbfb4	13.7343025
149	0x3f327191	0.6970454
150	0x415cc4df	13.798064
151	0x4153dd8d	13.24159
152	0x3bc7a198	0.0060922615
153	0xbbb7cdbf	-0.0056092436
154	0x3d52a1da	0.051423885
155	0xbbf928eb	-0.0076037548
156	0x41320129	11.125283
157	0xbb5cae94	-0.0033673393
158	0x415bd5a4	13.739658
159	0xbc07f0fa	-0.008297199
160	0x4154f4d9	13.309777
161	0x4157932b	13.47343
162	0xbea9a581	-0.33134082
163	0x3ce3af0e	0.027793434
164	0x3b94c083	0.0045395507
165	0xbb88d3f7	-0.004175659
166	0x4152896e	13.158552
167	0x3c1f5054	0.009723742
168	0xbc690768	-0.014222957
169	0x3ba815f5	0.0051295706
170	0xc1ba85ff	-23.315428
171	0x414c5792	12.771379
172	0x41360e73	11.378528
173	0x415fc69b	13.985988
174	0x410d3636	8.825735
175	0xbc5556b9	-0.013021165
176	0x3b8a39c4	0.004218312
177	0x4123469f	10.2047415
178	0xc0b2a2c7	-5.5823703
179	0xbc3c17e8	-0.011480309
180	0xbbde0a79	-0.006776151
181	0xb80da238	-3.3768098e-05
182	0x4142ac5b	12.167079
183	0x3bc25f37	0.0059317607
184	0x419b429b	19.407522
185	0x414b330f	12.6999655
186	0xbb3c76bb	-0.0028757292
187	0x398cee94	0.00026880635
188	0xbc5369e0	-0.012903661
189	0xc1bc080e	-23.503933
190	0x41482d36	12.511038
191	0x3a277328	0.0006387704
192	0xbc2cb8a2	-0.010542067
193	0x414bc05d	12.734464
194	0x414e17de	12.880827
195	0xbc5a5c84	-0.0133277215
196	0xbb2d13c1	-0.002640948
197	0xbbbc8e6e	-0.0057542836
198	0xbc805f85	-0.015670547
199	0xbc021f6d	-0.007942063
200	0xbc97c3a3	-0.018525904
201	0xbbefc495	-0.0073171356
202	0x3c4285d4	0.011872727
203	0x4157eb17	13.494895
204	0xbae01f43	-0.001709916
205	0x3c030531	0.007996843
206	0xbc3b7677	-0.011441818
207	0x41468983	12.408572
208	0x41425afe	12.147215
209	0x3bca9ede	0.006183489
210	0xbc838df7	-0.016058905
211	0xbcbcc22d	-0.023041809
212	0x4150e87b	13.056758
213	0x4103fcbb	8.249202
214	0x3f8608af	1.04714
215	0xbc11c9a8	-0.008898176
216	0xbc935d7a	-0.017988909
217	0x415c1188	13.75428
218	0x3c1740d0	0.009231761
219	0xbc32aaf4	-0.010905016
220	0xbb902efc	-0.004400132
221	0xba1da7b1	-0.00060140627
222	0x4148ae5a	12.542566
223	0x415177c0	13.091736
224	0xc1b1836c	-22.18917
225	0xbcd4c7ea	-0.025974233
226	0x4158d9a6	13.553137
227	0x4159b4c7	13.606635
228	0xbc9def47	-0.019279135
229	0x416ee094	14.929829
230	0xbcd57762	-0.026057903
231	0xbb543f17	-0.0032386237
232	0xbbee2d7d	-0.007268606
233	0x414ac5e2	12.673311
234	0xbc5c4a06	-0.013445383
235	0xbd88845e	-0.06665872
236	0x3d8b63da	0.068061545
237	0xbc718131	-0.014740274
238	0x41511041	13.066468
239	0xbc76a33b	-0.015053566
240	0x3b905662	0.004404829
241	0x3b49b007	0.0030775086
242	0x39efc3c9	0.00045731504
243	0xbbd26c84	-0.0064216275
244	0x417028d2	15.009966
245	0xbc3a2297	-0.011360786
246	0xbba963b5	-0.0051693567
247	0x410c47a2	8.7674885
248	0xbc486064	-0.012230013
249	0xbbc9657f	-0.0061461325
250	0x3bde670e	0.0067871874
251	0x3b636dba	0.0034702853
252	0xbc5902f7	-0.013245336
253	0x3ad36935	0.0016129377
254	0x3b3c0868	0.0028691534
255	0xc19cfd08	-19.62355

fc4.weight f4 [256, 256]
0	0x3e28c0fa	0.16479865
1	0x3e7fb4d6	0.24971327
2	0xbff6c8b3	-1.9279999
3	0xbba181c0	-0.0049287975
4	0xbd20fab3	-0.039301585
5	0xbc168c64	-0.009188745
6	0xbed7c47b	-0.4214209
7	0x3c1d4825	0.00959972
8	0x3a9a86e5	0.0011789469
9	0x3d227439	0.03966162
10	0xbc41cf1c	-0.011829164
11	0x3c2b7ee3	0.010467264
12	0xb994f716	-0.00028412853
13	0xbce9f19d	-0.028557593
14	0x3ea02765	0.31280056
15	0xbe57959b	-0.21053164
16	0xbd84d88f	-0.06486618
17	0x3da761ba	0.08172937
18	0xbc42c61d	-0.011888054
19	0xbe505a5a	-0.20346966
20	0xbc2ab24a	-0.010418484
21	0xbc23ec41	-0.010005058
22	0x3ba025af	0.0048873047
23	0xbcdb4ef7	-0.026771052
24	0xbc5a89bb	-0.013338502
25	0xbbf24918	-0.0073939674
26	0xbc15d8af	-0.0091459
27	0x3c4ce102	0.012504818
28	0xbc019f91	-0.007911579
29	0xbd84227d	-0.064518906
30	0x3c2c4027	0.010513342
31	0xbf06ca31	-0.5265227
32	0x3e0167da	0.12637272
33	0x3c28289d	0.010263589
34	0x3aff5ef0	0.001948325
35	0xbbebcab9	-0.0071957973
36	0x3c17c11c	0.009262349
37	0xc03c8d5c	-2.946128
38	0x3f8c5fd5	1.0966746
39	0x3e835f10	0.25658464
40	0xbdc9bdb3	-0.098506354
41	0xbaafbc5a	-0.0013407574
42	0x3f1f1e69	0.6215578
43	0x3d5cf0df	0.05394065
44	0x3e13dabb	0.14438908
45	0xbb80b673	-0.0039279996
46	0x3c8858a3	0.016643828
47	0xbdb0d482	-0.08634283
48	0xbe8c4a5a	-0.27400476
49	0x3edf6258	0.43629718
50	0x3ebae94e	0.36506122
51	0x3bfa7747	0.0076436135
52	0xbb9c6979	-0.0047733155
53	0x3d7c36e5	0.06157579
54	0x3ef3de7d	0.47630683
55	0x3fa12ae1	1.2591211
56	0x3ba6776e	0.005080155
57	0x3befff46	0.007324132
58	0xbc3bda70	-0.011465654
59	0xbff4350a	-1.9078686
60	0x3bf97825	0.0076131993
61	0xbbc7c347	-0.006096277
62	0x3bbaf3d1	0.0057053347
63	0xbc908d48	-0.017645493
64	0x3b9cc780	0.0047845244
65	0xbc001b56	-0.007819017
66	0xbe63fcd4	-0.22264415
67	0xbc0e3037	-0.0086784875
68	0xbc086892	-0.008325713
69	0x3be68356	0.0070346994
70	0xbc036341	-0.008019269
71	0x3e66c774	0.22537023
72	0x3dd55f73	0.10418596
73	0xc085aee6	-4.1776
74	0xbbd3fa8d	-0.006469077
75	0xbb095fe3	-0.0020961694
76	0x3eb6b6bb	0.35686287
77	0x3c1a8797	0.009431741
78	0xbda2e8e3	-0.07954576
79	0x3e7d9f3a	0.24767771
80	0x3b3049f8	0.0026899558
81	0x3e95277a	0.2913168
82	0x3f8b291d	1.0871922
83	0x3af9298f	0.0019009578
84	0xc021522d	-2.5206406
85	0xbb5b89d1	-0.0033498893
86	0xbc54b8c9	-0.012983509
87	0x3c322802	0.010873796
88	0x3a47eb42	0.00076263037
89	0x401f6743	2.4906776
90	0x3b326d54	0.002722581
91	0xbc3c0b38	-0.011477284
92	0xbf7a1ad5	-0.9769719
93	0xbc610574	-0.01373421
94	0x3f28a632	0.65878594
95	0x3be42823	0.0069627925
96	0x3f133705	0.5750583
97	0x3e881b09	0.26583126
98	0xbeeaf0d6	-0.45886868
99	0x3c1fcc1c	0.009753253
100	0xbb60d578	-0.0034306925
101	0xba6e3452	-0.0009086776
102	0x3bade468	0.005306769
103	0xbbd1da65	-0.0064042085
104	0x3fa85ace	1.3152711
105	0x3e330ad6	0.17484602
106	0x3c218bca	0.0098599885
107	0xbc21e161	-0.009880395
108	0xbbbea61b	-0.005818141
109	0xbfb3ded2	-1.4052374
110	0x3f1be9bb	0.6090352
111	0x3c40b471	0.011761771
112	0x3deda11a	0.11602993
113	0x3ea16695	0.31523576
114	0xbbda5a17	-0.0066635716
115	0xbbe4cb7b	-0.0069822646
116	0x3f0840e8	0.5322404
117	0x3e409b5e	0.18809268
118	0xbc0e5f93	-0.008689779
119	0xbc1b7017	-0.0094871735
120	0xbafefe22	-0.00194544
121	0x3bae5160	0.0053197592
122	0x3bfcbe6e	0.0077131307
123	0x3a6868ef	0.0008865734
124	0xbbb76d17	-0.0055977213
125	0xbcb1c661	-0.02170104
126	0xbc0d717b	-0.008633013
127	0x3e660993	0.2246459
128	0xbc21dcbe	-0.009879289
129	0x3e6a3a27	0.22873746
130	0x3d062b9f	0.032756444
131	0x3bcb2bdd	0.0062002973
132	0xbbc14a94	-0.005898783
133	0xbbb4842c	-0.00550892
134	0x3bc4acc0	0.0060020387
135	0xbf375036	-0.7160677
136	0xbf885200	-1.0650024
137	0xb8fc694a	-0.00012035908
138	0x3bcbe444	0.0062222797
139	0x3bb6b70b	0.0055760196
140	0x3bbe94a6	0.00581606
141	0xbbed1e6e	-0.0072362935
142	0xbd248849	-0.040169034
143	0x3bda23d4	0.006657103
144	0xba827779	-0.0009953819
145	0x4048ef00	3.1395874
146	0xbe3fac35	-0.18718036
147	0x3a40aa97	0.00073496386
148	0x3d748bb4	0.059703544
149	0xbc1336b7	-0.008985213
150	0x3e4c9881	0.1998005
151	0x3ddff5ba	0.109355405
152	0xbb2786bf	-0.0025562493
153	0xbbeef7e7	-0.007292736
154	0x3c9deb37	0.019277198
155	0x3c067624	0.008206878
156	0x3e94945b	0.29019436
157	0x3c22c4d3	0.009934622
158	0x3e838ffc	0.2569579
159	0x3c27dd18	0.010245584
160	0x3c1e6678	0.009667985
161	0x3e1dd862	0.15414575
162	0xbf32205b	-0.6958062
163	0xbc00763e	-0.007840691
164	0x3c3ea3c3	0.0116357235
165	0x3c07320e	0.00825168
166	0x3e4714fc	0.19441599
167	0x3b31e9b0	0.0027147345
168	0x3c2e8412	0.010651605
169	0xbc57e1f7	-0.013176433
170	0xbeaab335	-0.3333985
171	0x3e4820a5	0.19543703
172	0xc0b00cbc	-5.5015545
173	0xbf55a2c9	-0.83451515
174	0xbf2071c8	-0.62673616
175	0x3b2f7f81	0.002677888
176	0x3a265263	0.0006344674
177	0x3e130515	0.14357407
178	0x401918e6	2.3921447
179	0x3bd0f1db	0.0063764877
180	0x3c04ef0f	0.008113637
181	0xbc462807	-0.012094504
182	0x3e3d28e9	0.18472637
183	0x3c1ebd17	0.009688637
184	0x3deb838b	0.11499699
185	0x3ee2630b	0.4421619
186	0xba208821	-0.00061238004
187	0xb912b9f1	-0.00013992914
188	0x395f4961	0.00021294273
189	0xc05a417f	-3.4102476
190	0x3e62649a	0.22108689
191	0xbb9199e9	-0.0044433963
192	0x3bf38f8d	0.007432884
193	0x3fd0e312	1.6319296
194	0x3e901be6	0.28146285
195	0x3c1d0b02	0.009585144
196	0x3b1b50ae	0.0023699212
197	0xbbcd18ed	-0.006259075
198	0x3c2678ba	0.010160619
199	0x3c150691	0.009095804
200	0xbb393997	-0.0028263086
201	0x3b6a0eb2	0.0035714325
202	0xba4793db	-0.000761328
203	0x3e301535	0.1719559
204	0x3bb8b474	0.005636746
205	0x3b6513cb	0.0034954424
206	0x3c88d038	0.016700849
207	0x3ea4bb0d	0.32173958
208	0x3ef1f8f9	0.47260264
209	0xbbba7aee	-0.005690924
210	0x3a02b26c	0.00049856934
211	0xbc111469	-0.008854964
212	0x3e0b4663	0.13601069
213	0xbe8ebaa3	-0.27876768
214	0xbfec473d	-1.845924
215	0xbc5bc751	-0.01341422
216	0xbc02f75a	-0.0079935435
217	0x3fac423a	1.3457711
218	0x3bea6b69	0.0071539176
219	0x3bf50a55	0.0074780383
220	0x3ad9566e	0.0016581544
221	0xbaafe10d	-0.0013418511
222	0x3e627c98	0.22117841
223	0x3eee0c5a	0.46493798
224	0x3ef0bf42	0.47020918
225	0xbc7cfc2c	-0.015440982
226	0x3eae9fcc	0.3410629
227	0x3fa8e920	1.3196144
228	0xbc8e2922	-0.017353598
229	0xbe85738a	-0.26064712
230	0x3ca30190	0.019898206
231	0x3bcb7ccb	0.006209945
232	0x3bc4585a	0.0059919776
233	0x3e889bbf	0.26681325
234	0xbbc3e169	-0.0059777987
235	0xba3b3b7b	-0.0007142347
236	0xbbc7e1f4	-0.0060999338
237	0x3c2dd141	0.010608972
238	0x3e82063c	0.2539538
239	0x3beca70c	0.007222062
240	0x3bf1e832	0.007382416
241	0xbc391699	-0.011296892
242	0x3baab537	0.005209591
243	0xbc90b9e7	-0.01766677
244	0xba585fbf	-0.00082540134
245	0x3d2606bf	0.040533777
246	0xbc14cc5a	-0.009081924
247	0xbe3e20e0	-0.18567228
248	0x3b5a71a4	0.0033331895
249	0xbac5405d	-0.0015049089
250	0x3c27a1fa	0.010231489
251	0xbc2cbda4	-0.010543261
252	0x3be5a797	0.0070085037
253	0xbb5f59f9	-0.0034080727
254	0xbc02e619	-0.00798943
255	0xbe4d43c8	-0.20045388
