src/model_sup.pt (torch, 803804 bytes, 10 tensors)

fc1.weight f4 [256, 6]
0	0x3cb132a4	0.021630593
1	0x40c8323e	6.256133
2	0xc0bd0ff5	-5.908198
3	0x41c6e362	24.861027
4	0x409e1de7	4.94115
5	0x40a3747f	5.1079707
6	0xbe34f459	-0.17671336
7	0x3f894e54	1.0727029
8	0x408c3d7a	4.3825045
9	0x40761d5b	3.8455417
10	0x3f32531e	0.69658077
11	0xc094ec9c	-4.653883
12	0xbbfb1370	-0.0076622292
13	0x3fa86f0e	1.3158891
14	0xc1c103c6	-24.126842
15	0xc1811b2f	-16.138273
16	0xbe7fa1eb	-0.2496411
17	0xc150c1ad	-13.047284
18	0x3e998b14	0.2998892
19	0x401c69b2	2.4439511
20	0xc02c4847	-2.6919115
21	0x41175577	9.458365
22	0x3d0209a4	0.031747475
23	0x3f833404	1.0250249
24	0xbdd78080	-0.10522556
25	0x3f5d7e2b	0.8652064
26	0xc0fdc91c	-7.9307995
27	0x41c152b3	24.16538
28	0x3e42f006	0.19036874
29	0x40ac36cf	5.3816905
30	0x3c02f592	0.007993119
31	0x3d65c45f	0.056095477
32	0xbfd19689	-1.6374065
33	0x411ea6e1	9.915742
34	0x3b6479e8	0.00348627
35	0x409ff26e	4.9983435
36	0xbd88bac7	-0.0667625
37	0x3e2d761c	0.16939586
38	0xc05860b7	-3.380903
39	0xc03b889e	-2.9302135
40	0x3e6e78fa	0.23288336
41	0xc1c6b342	-24.837528
42	0xbee05c68	-0.438205
43	0xbeb2c020	-0.34912205
44	0x4117eabd	9.494809
45	0xbf215b08	-0.6302953
46	0x3ea89c8f	0.32931945
47	0xc1704db4	-15.0189705
48	0xbd6ef9a2	-0.058343537
49	0xbf8ab257	-1.0835675
50	0xbeee8d0f	-0.46591994
51	0xc12a017a	-10.6253605
52	0xc044e953	-3.076741
53	0x407bc4d1	3.9338877
54	0xbe565b23	-0.20933203
55	0xbed4aa62	-0.41536242
56	0x3dde5f48	0.10858017
57	0xbecca59a	-0.39970094
58	0xbeaa1874	-0.3322178
59	0xbe5ef0b8	-0.21771514
60	0xbe309f85	-0.17248352
61	0x3c6b147e	0.014348147
62	0x3e3fd9cc	0.18735427
63	0xc0cd1017	-6.408214
64	0x3f86d12b	1.0532583
65	0xc0a61347	-5.189853
66	0x3ca721ec	0.020401917
67	0xbf8659fb	-1.049621
68	0x4040d320	3.012886
69	0xc0eefb5f	-7.468185
70	0xbf9e8336	-1.2383792
71	0xc180cd78	-16.100327
72	0x3e059ee6	0.13048896
73	0x3f17db48	0.5931897
74	0xc1034f05	-8.206792
75	0x412e2cc2	10.885927
76	0x3e4fd90f	0.20297645
77	0xc077824c	-3.8673277
78	0x3e400545	0.1875201
79	0xc0102615	-2.2523243
80	0x407b234c	3.9240294
81	0x410031fe	8.012205
82	0xbfaa3505	-1.329743
83	0x416e833b	14.907039
84	0xbdfd82db	-0.12378474
85	0x3fc60910	1.5471516
86	0xbeea7f8e	-0.45800442
87	0xc108317b	-8.51208
88	0x3ea63e10	0.32469225
89	0x40b68b55	5.7045083
90	0xbbf8041a	-0.0075688483
91	0x3fc1cd82	1.5140841
92	0x3f13012c	0.57423663
93	0x415e362d	13.8882265
94	0x3f24883d	0.64270383
95	0x410efd47	8.936835
96	0x3d4ab0e6	0.04948511
97	0x3dbd35a8	0.0923875
98	0x411a294b	9.635081
99	0x40dde1bd	6.933806
100	0x3e93185f	0.2872953
101	0xc1a37469	-20.43184
102	0x3dde8ef3	0.10867109
103	0xbdb34a79	-0.08754439
104	0xbecd7203	-0.40126047
105	0x40c5a539	6.176419
106	0x3eedbffa	0.4643553
107	0xc196e7f8	-18.863266
108	0xbf089470	-0.533515
109	0xbe87966c	-0.2648195
110	0x3f68defc	0.9096525
111	0xbef987f9	-0.4873655
112	0x3e023451	0.1271527
113	0xc105cb77	-8.362174
114	0xbe696e08	-0.2279588
115	0x3f0cdaac	0.55021167
116	0xc09efe69	-4.968556
117	0xbf303ce2	-0.688429
118	0x3f0c5dc3	0.5483057
119	0x3f990a44	1.1956258
120	0xbe9bfb33	-0.30465087
121	0xbd93f056	-0.07223575
122	0x3c502aef	0.012705549
123	0xbe9a7ff2	-0.3017574
124	0xbc9227b2	-0.017841194
125	0xbe385044	-0.17999369
126	0xbc04ad31	-0.008097933
127	0xc19c965f	-19.573423
128	0xbf1da477	-0.6157908
129	0xc1db77bc	-27.433464
130	0xc194fdaa	-18.62386
131	0x3f53859b	0.8262574
132	0xbe243ef6	-0.16039643
133	0xbd84fc48	-0.06493431
134	0x3ea52102	0.32251745
135	0xbecaf4a7	-0.3963978
136	0xbd9a2f77	-0.075285845
137	0x3ddd5572	0.10807313
138	0x3d0499c3	0.0323732
139	0x40230ed6	2.5477805
140	0xc0a35060	-5.1035614
141	0xbf175aaa	-0.5912272
142	0xbfda499a	-1.7053711
143	0x404a35cd	3.1595337
144	0xbe7181f6	-0.23584732
145	0x3ee0bc51	0.43893674
146	0xc0e0f773	-7.030206
147	0xc0b66c43	-5.7007155
148	0x3f2f0662	0.68369114
149	0xc0c0883e	-6.016631
150	0xbe099c64	-0.13438565
151	0x3f3b3648	0.731297
152	0xbfacedbd	-1.3510052
153	0x41973464	18.900581
154	0x3f9b358e	1.2125719
155	0x40825946	4.0733976
156	0xbf93a2be	-1.153404
157	0x3f199626	0.59994733
158	0x3fe86c04	1.8157964
159	0x3e03020f	0.12793754
160	0x3f089bdd	0.5336283
161	0xc0566b67	-3.3503053
162	0xbe0f4580	-0.13991356
163	0xbeb692e9	-0.3565896
164	0x41169329	9.410928
165	0x3e0923b3	0.13392524
166	0x3ecabca8	0.39597058
167	0xc150bbf0	-13.045883
168	0xbe6add2e	-0.22935936
169	0x3e28735e	0.16450259
170	0xbd9ad0f0	-0.07559383
171	0x3ebccd1e	0.36875242
172	0xbe698a84	-0.22806746
173	0x3eaab8ef	0.33344218
174	0x3e983eef	0.29735515
175	0x3fb78ad2	1.433924
176	0xc06e8030	-3.726574
177	0x3f391a6c	0.7230594
178	0xbbf20818	-0.0073862188
179	0xbfed28d1	-1.8528081
180	0xbd8c786a	-0.06858905
181	0x3d716fce	0.058944516
182	0xc00e545f	-2.2238996
183	0xc08fabd6	-4.489726
184	0x3ebd7d52	0.37009674
185	0x40c3f634	6.123804
186	0xbe858974	-0.2608143
187	0xbec01f4d	-0.3752388
188	0xbeb36674	-0.35039103
189	0x3dd89e09	0.10577018
190	0xbda94583	-0.082652114
191	0xbb5012e4	-0.003174954
192	0xbe0d9649	-0.1382686
193	0xbe79255a	-0.24330655
194	0xbe05d431	-0.13069226
195	0xbe93e187	-0.28883
196	0x3cb6befe	0.022307869
197	0xbec062b7	-0.37575313
198	0x3c84e087	0.016220344
199	0xbf13faff	-0.57804865
200	0xc0854c43	-4.1655593
201	0xc07474ea	-3.8196359
202	0x3e1f379e	0.1554856
203	0x4126828a	10.40687
204	0xbd69aeb4	-0.057051376
205	0x3eadee2f	0.33970782
206	0x3da83497	0.08213156
207	0x3da4a8f6	0.08040039
208	0xbd7c0244	-0.0615256
209	0xbea2e99a	-0.3181885
210	0xbd073231	-0.03300685
211	0x3e3af420	0.18257189
212	0xbe151f49	-0.14562716
213	0x3df9b9fe	0.12193678
214	0xbdb8d2ef	-0.090246074
215	0x3d3b89d5	0.045785744
216	0xbf2c4792	-0.6729671
217	0x3f93e147	1.1553124
218	0xc13023c2	-11.00873
219	0xbfd112a9	-1.633382
220	0x3f6f3748	0.9344373
221	0x3f8debe9	1.1087619
222	0x3d5b0081	0.053467277
223	0xbfcf48ad	-1.6194054
224	0x4111bf2d	9.109174
225	0x416a9f3d	14.663877
226	0x3ef68ac9	0.4815276
227	0x411bcbba	9.737238
228	0x3bc68974	0.006058866
229	0xbf5d8edd	-0.8654612
230	0x40f73ce1	7.7261815
231	0x4162fa60	14.186127
232	0x3ea823e5	0.32839885
233	0x412c9cd2	10.788286
234	0x3de52cdd	0.111901976
235	0xc1134f71	-9.206895
236	0x401ed8d7	2.4819849
237	0x41076ac4	8.463566
238	0xc0c21e5a	-6.066205
239	0x415c4918	13.767845
240	0x3e61bdd5	0.22045071
241	0x3f779a05	0.9671939
242	0x40584d26	3.3797088
243	0x413781e3	11.469211
244	0x3e7a843a	0.24464503
245	0x409a73b3	4.8266234
246	0xbeadeccc	-0.33969724
247	0xbe87a901	-0.26496127
248	0xbda43d94	-0.080195576
249	0xbe68805c	-0.22705215
250	0x3d1075b9	0.03526852
251	0x3e1af52d	0.1513259
252	0x3e5ae3a6	0.21375903
253	0xbfd6cd11	-1.6781331
254	0x406f2e99	3.737219
255	0x40f15dd2	7.5427027

fc1.bias f4 [256]
0	0xc18a1b73	-17.263403
1	0x40db5b46	6.854892
2	0xc20298e4	-32.649307
3	0xc0db84e5	-6.8599725
4	0xc0907f0a	-4.5155077
5	0x412c7192	10.777727
6	0xc10f7cf5	-8.968007
7	0xbcb27aab	-0.021787008
8	0x4034e7c9	2.826647
9	0x3e900019	0.28125075
10	0xc1720843	-15.127017
11	0xc1361db2	-11.38225
12	0xc1023946	-8.138983
13	0x41e2f227	28.368238
14	0x4019d54d	2.4036438
15	0x40736c33	3.803479
16	0xc00b21ff	-2.17395
17	0xbfc26250	-1.5186253
18	0xbf134b98	-0.5753722
19	0xbea9b176	-0.33143204
20	0xbdfb7e57	-0.12279957
21	0x4050beae	3.2616382
22	0xbe7a07f0	-0.2441709
23	0xc0f9e9a8	-7.8097725
24	0xc122b379	-10.168817
25	0x40ba64ed	5.82482
26	0x3e5e89af	0.2173221
27	0xbfb3efc2	-1.4057543
28	0xbdfcb9a7	-0.12340098
29	0xc1019a84	-8.100224
30	0x40c17124	6.045061
31	0x3e057281	0.13031961
32	0xbed079a0	-0.40717793
33	0x41c90631	25.128023
34	0x3ea209bc	0.31648052
35	0xbe143b4e	-0.14475748
36	0xbf82a4c8	-1.0206537
37	0x41629b5a	14.162928
38	0x418d5358	17.665695
39	0x416f79dc	14.967251
40	0x410eedc5	8.933049
41	0x3e54dbf6	0.20787033
42	0x41dc51b4	27.539894
43	0x40378efb	2.8681018
44	0xc16ab4dd	-14.669156
45	0xbed396fc	-0.4132613
46	0xc1177f0c	-9.468517
47	0x4106ace2	8.417208
48	0x40c6fc04	6.2182636
49	0x3dba98d5	0.09111182
50	0xc1bccac7	-23.599012
51	0x41e03139	28.024035
52	0xc1c89993	-25.074987
53	0xbc1ed49e	-0.009694247
54	0x3ea57359	0.32314566
55	0x3f2ad224	0.667269
56	0xbea04c6a	-0.313083
57	0xc1a44409	-20.53322
58	0xc1a071fa	-20.055653
59	0x41d00cfa	26.006336
60	0xbec2b504	-0.3802873
61	0xc11f8c17	-9.971702
62	0xc1b5ac32	-22.70908
63	0x40953610	4.6628494
64	0x3d80e9a0	0.062945604
65	0xbfa04b3b	-1.2522959
66	0x3e8ed893	0.27899608
67	0xc18e9c04	-17.82618
68	0x40d4131b	6.627332
69	0xc0c2ac17	-6.083507
70	0xc0230a21	-2.5474932
71	0x3f3e58c7	0.74354213
72	0x40b26f64	5.5760975
73	0xc183174e	-16.38638
74	0xc1a36a66	-20.426952
75	0x3e657d23	0.22411017
76	0xc1132aa8	-9.197914
77	0xc0fab92b	-7.8351035
78	0xbe29dab0	-0.16587329
79	0xc1215ff1	-10.085923
80	0xc1704512	-15.016863
81	0x40d82a05	6.7551293
82	0x410c0073	8.75011
83	0xc0cfb4b4	-6.4908085
84	0x3e8189e4	0.25300515
85	0x41c0a7a1	24.08185
86	0xbf0d6619	-0.55233914
87	0x3c9708d4	0.018436827
88	0x3dc5f5a1	0.096659906
89	0x411d1923	9.818637
90	0xbf34f316	-0.7068342
91	0x41289136	10.535452
92	0xbe88bfa7	-0.2670872
93	0xc1cb79fa	-25.434559
94	0x40b969a9	5.794148
95	0xbf1fca3a	-0.6241795
96	0x3d9ff78f	0.0781089
97	0xc0876cf7	-4.2320514
98	0x3ded9706	0.11601071
99	0xc1eccdb5	-29.600443
100	0x40b78365	5.7347894
101	0xc11c25ef	-9.759261
102	0x3d358c17	0.044323053
103	0xc1864df2	-16.78806
104	0xbec41928	-0.38300443
105	0xbe8a45ff	-0.27006528
106	0xbec13bf1	-0.37741044
107	0xc1086ce7	-8.5265875
108	0x40d7e745	6.746981
109	0xbebc462a	-0.3677228
110	0xc13f6610	-11.962418
111	0x405dfb90	3.4684792
112	0xc1a81bb7	-21.013533
113	0xc1004c63	-8.018649
114	0xbebf050f	-0.37308547
115	0xc1b4311f	-22.523985
116	0x41e240ed	28.281702
117	0xc1020ee0	-8.128632
118	0xbe921ec7	-0.28539106
119	0x406586ad	3.586345
120	0xbe906531	-0.28202203
121	0x4145c2ef	12.360091
122	0xc1899565	-17.197947
123	0xbe84a11f	-0.25904176
124	0xc08a781b	-4.3271613
125	0x40b91d1c	5.7848034
126	0xbee0b208	-0.43885827
127	0x3e9c395b	0.3051251
128	0xbee02838	-0.43780684
129	0x3f0e7f4e	0.55663
130	0x4114ea19	9.307153
131	0x3f28fafe	0.66007984
132	0xc0c0fd4b	-6.0309196
133	0x3d5a6054	0.053314522
134	0xbe492ef1	-0.19646813
135	0x40b5489d	5.665114
136	0xc1ae8ed5	-21.819742
137	0x40d81d5b	6.7535834
138	0x3ebdc55f	0.37064645
139	0x3fe33e0f	1.7753314
140	0xbf83c3b5	-1.02941
141	0x3d243d9c	0.040097818
142	0xbdffa7d1	-0.1248318
143	0x3ea43f5f	0.32079598
144	0xc061f116	-3.5303397
145	0xc092e9ec	-4.591055
146	0x3ffb81b6	1.964896
147	0xc07cc433	-3.949475
148	0xbe6322b3	-0.22181205
149	0x3e2c3c86	0.16819963
150	0xbe26b45e	-0.16279742
151	0xc0591567	-3.3919313
152	0xc1b68cb0	-22.818695
153	0x3dc07078	0.09396452
154	0xc06fc681	-3.7464907
155	0x4039a037	2.9004037
156	0xbeb2e877	-0.34942982
157	0x3d6b7e6c	0.057493612
158	0xbf70b2e5	-0.9402297
159	0xc0c83537	-6.256496
160	0xc1a2e94d	-20.363916
161	0xc01ae948	-2.4204884
162	0x3ec17e7e	0.37791818
163	0x3de07deb	0.10961517
164	0xbfe885b0	-1.8165798
165	0x40d9ce05	6.806399
166	0xbe37e82d	-0.17959662
167	0xbdb238d0	-0.087022424
168	0xbe9bd809	-0.3043826
169	0xc0b2d837	-5.5888934
170	0x3faeb457	1.3648785
171	0x407c15d6	3.9388328
172	0x3e4b6d0a	0.19865814
173	0x3f9a7908	1.2068186
174	0xc0e4b16a	-7.146657
175	0x40df5978	6.9796715
176	0xbf563e8f	-0.83689207
177	0xbe130503	-0.1435738
178	0xc0e5386c	-7.1631374
179	0x410fb434	8.981495
180	0xbe82c259	-0.255389
181	0x3cd39af5	0.025830725
182	0xc0ac453d	-5.383452
183	0xc1aa356f	-21.27609
184	0xbe85e23b	-0.26149163
185	0x40abbecf	5.367042
186	0xc20a307f	-34.54736
187	0x41284f4c	10.51936
188	0xbe54388a	-0.20724693
189	0x40735a50	3.8023872
190	0xbfe8c14b	-1.8183988
191	0xbeb32828	-0.34991574
192	0xbe98d129	-0.29847077
193	0xbfd72aae	-1.68099
194	0x403a1703	2.9076545
195	0x3f7da1e0	0.99075127
196	0xbf874a0f	-1.0569476
197	0xbea4d57a	-0.3219412
198	0xbed28980	-0.4112053
199	0xc082919d	-4.080275
200	0xc01cae44	-2.4481363
201	0xc0dff244	-6.9983234
202	0xbfe3cdb8	-1.7797155
203	0x4093c9f5	4.618403
204	0x3e82c047	0.2553732
205	0xc148d961	-12.553071
206	0x41265a86	10.3971
207	0xc1085981	-8.521852
208	0x40cd28a2	6.41121
209	0x407a1178	3.9073162
210	0xc125a767	-10.35337
211	0x3f8e1769	1.1100894
212	0x3e8b1fd6	0.27172726
213	0xc142d9b3	-12.178149
214	0x41c7c886	24.972912
215	0x3f4bce05	0.79611236
216	0x41b37101	22.430178
217	0xc13b3205	-11.699712
218	0x40d901ba	6.781461
219	0xbeb447f8	-0.35211158
220	0xc1cec8f2	-25.848118
221	0xc11a6d2a	-9.651651
222	0x40b3fd4f	5.6246715
223	0xbc182145	-0.009285276
224	0xbe566cc1	-0.20939924
225	0xc15b44b5	-13.704274
226	0x3fed2d3c	1.852943
227	0x40794e72	3.895413
228	0xc135fe1b	-11.374537
229	0x4132d008	11.175789
230	0x40aca613	5.3952727
231	0xbdfb3044	-0.12265065
232	0xc10dd856	-8.865316
233	0x411a65b6	9.649832
234	0x40308769	2.7582648
235	0xc17f63b4	-15.961842
236	0xc117aa61	-9.479096
237	0xbeed9fb2	-0.464109
238	0xbec32dd3	-0.381209
239	0x3d8a3b05	0.06749538
240	0x3e919247	0.28431913
241	0x3ea1564c	0.31511152
242	0xc086fe47	-4.2185397
243	0x3da15003	0.07876589
244	0xbf353375	-0.7078164
245	0xc1530410	-13.188492
246	0xbe852fa5	-0.26012912
247	0xbe98f05f	-0.2987089
248	0x40a2e4e6	5.0904417
249	0xc0107bf3	-2.2575653
250	0xbe003889	-0.12521566
251	0x3e1ffb7a	0.15623274
252	0xc0758abe	-3.8365932
253	0x3dfead08	0.12435347
254	0xc1362f83	-11.3866
255	0xbd565820	-0.052330136

fc2.weight f4 [256, 256]
0	0xbd897502	-0.067117706
1	0x3c5374ea	0.012906292
2	0x3d3958b9	0.04525063
3	0xbd2529fe	-0.04032325
4	0x3bf51103	0.0074788346
5	0x39e92ce0	0.00044474658
6	0x3c815bed	0.015790904
7	0x3d1d534f	0.038409527
8	0x3d48cf9c	0.049026117
9	0xbd4d84bc	-0.050175413
10	0xbd0fdecb	-0.03512458
11	0x3cc10c38	0.023565397
12	0xbd3164e8	-0.043309122
13	0xbd314c41	-0.043285612
14	0xbd42e639	-0.04758284
15	0xbd484b92	-0.048900194
16	0xbb749a00	-0.0037323236
17	0x3c3a3dc4	0.011367265
18	0x3ca7232a	0.02040251
19	0xbd60f21a	-0.054918386
20	0xbc9b0210	-0.018921882
21	0xbcb3e43f	-0.021959422
22	0x3d534075	0.051575143
23	0xbd6490aa	-0.055802025
24	0xbd4ff7ee	-0.050773554
25	0x3cfe929b	0.031075766
26	0x3c99a0c4	0.018753417
27	0x3cc26afe	0.023732658
28	0x3d361a88	0.044458896
29	0xbd17cd39	-0.03706095
30	0x3d42e138	0.047578067
31	0x3d733914	0.059380606
32	0x3c46d7d2	0.0121364165
33	0xbd59ed7c	-0.053205
34	0xbc3f8710	-0.011689916
35	0x3cac3329	0.021020489
36	0xbd323a71	-0.043512765
37	0xbd4903bd	-0.04907583
38	0xbd7598d2	-0.059960194
39	0x3d8a3a15	0.067493595
40	0x3c7c2754	0.015390236
41	0xbbb33b4a	-0.0054697143
42	0x3d06daf2	0.032923646
43	0x3a3246b8	0.0006800699
44	0xbc878214	-0.016541518
45	0xbd58e378	-0.052951306
46	0xbbe8ce44	-0.007104667
47	0x3d1e8790	0.0387035
48	0xbc0ae570	-0.008477554
49	0x3d384d26	0.04499545
50	0x3c6f8339	0.014618688
51	0x3cd064b2	0.02543864
52	0xbd32cbfd	-0.04365157
53	0xbd018284	-0.03161861
54	0x39164220	0.00014329748
55	0xbd5767fc	-0.0525894
56	0x3ce358cd	0.027752304
57	0x3d84ce2d	0.064846374
58	0x3c462059	0.012092673
59	0xbd2c3b5a	-0.04204879
60	0xbcef74b0	-0.029230446
61	0x3bb70f5e	0.0055865487
62	0xbd4af6d7	-0.04955181
63	0x3a218575	0.0006161549
64	0xbca0c7d5	-0.019626537
65	0xbcecff00	-0.028930187
66	0x3ca884df	0.02057117
67	0xbd0974b5	-0.033558566
68	0xbcacbd6f	-0.021086423
69	0xbcfcead2	-0.03087369
70	0x3c6881a2	0.014191063
71	0x3b1b531b	0.0023700658
72	0x3d2ee710	0.042700827
73	0xbd185e2f	-0.037199195
74	0xbd276ca1	-0.04087508
75	0x3b74a25c	0.003732822
76	0x3c946be8	0.01811786
77	0xbd4d5987	-0.050134208
78	0xbcfcb22b	-0.030846676
79	0x3cfeb56f	0.031092374
80	0xbd1d0053	-0.038330387
81	0x3d6e94c8	0.058247358
82	0x3cadad1c	0.021200709
83	0x3d788e46	0.060682558
84	0x3d6158c5	0.055016298
85	0x3d0daade	0.03458678
86	0x3d1b59b3	0.03792734
87	0xbd7cee17	-0.061750498
88	0x3c5176da	0.012784684
89	0x3d8dd101	0.0692463
90	0x3d475cac	0.048672363
91	0xbd32d2a1	-0.043657903
92	0xbbfe471c	-0.0077599417
93	0xbcd33b38	-0.025785074
94	0xbccdf2a6	-0.025140118
95	0x3c4dd542	0.012563052
96	0xbd40d230	-0.04707545
97	0x3cad216e	0.021134105
98	0xbcbe0995	-0.023197928
99	0x3d7fd166	0.062455557
100	0x3cdaa40a	0.026689548
101	0xbd514b3b	-0.051097136
102	0x3c81c124	0.015839167
103	0x3b93448e	0.0044942563
104	0xbb97fe68	-0.004638482
105	0xbd8c8832	-0.06861915
106	0x3c231068	0.009952642
107	0x3c6bd5a6	0.0143941995
108	0x3d9375a2	0.07200171
109	0xbd27223f	-0.040804144
110	0xbced648a	-0.028978605
111	0x3b391bb0	0.0028245263
112	0xbba325ac	-0.004978856
113	0xbcfb4368	-0.03067179
114	0xbd7c2e3b	-0.061567526
115	0x3cd41153	0.025887167
116	0xbbad9ae9	-0.0052980077
117	0x3b7e14fc	0.0038769832
118	0xbcbf8204	-0.023377426
119	0x3cf904ca	0.030397791
120	0x3d2b6293	0.041842055
121	0xbd6b1bfd	-0.05739974
122	0x3c73fea9	0.014892259
123	0x3d853982	0.06505109
124	0x3c0eba56	0.008711418
125	0x3d022916	0.031777464
126	0x3d10acfe	0.03532123
127	0xbd8a7064	-0.06759718
128	0x3ca76556	0.020434063
129	0x3c2b12b0	0.010441467
130	0x3d1c604a	0.038177766
131	0xbcd0e7d1	-0.025501164
132	0x3d2fe8da	0.042946674
133	0x3d15b18b	0.03654627
134	0xbcd93808	-0.026515976
135	0xbcd2d0a1	-0.025734248
136	0x3d862260	0.06549525
137	0xbd44b07d	-0.048019875
138	0xbc8d11fd	-0.017220492
139	0x3c9be21b	0.019028714
140	0xbd781bf5	-0.060573537
141	0xbc59ac50	-0.013285711
142	0xbcace221	-0.02110392
143	0x3d28df6b	0.041228693
144	0xbc7f54ac	-0.015584152
145	0x3d0dbcfc	0.034604058
146	0xbc395820	-0.011312515
147	0xbb49475f	-0.0030712707
148	0xbc6952f8	-0.014240973
149	0xbd0ccda2	-0.034375794
150	0xbd106a20	-0.03525746
151	0xbba4d012	-0.0050296867
152	0xbc1308b4	-0.008974243
153	0x3cf45162	0.029823963
154	0xbc541252	-0.012943821
155	0x3d023b29	0.0317947
156	0xbc40b38c	-0.011761557
157	0x3d09c09f	0.033630963
158	0x3d541d9a	0.051786043
159	0x3c720cb6	0.014773538
160	0x3be0e903	0.0068637147
161	0x3d5813ec	0.052753374
162	0xbbd5bef8	-0.0065230094
163	0xbd13d70c	-0.036093757
164	0xbd463af3	-0.048396062
165	0xbd517fe0	-0.05114734
166	0x3cf45088	0.029823557
167	0xbc326ad4	-0.010889728
168	0x3d0ff261	0.03514326
169	0xbd35d367	-0.044391062
170	0x3d8a568d	0.067547895
171	0x3d166a8f	0.036722716
172	0x3d44a6a0	0.04801047
173	0x3ce1e45d	0.027574712
174	0x3ca18ea7	0.019721342
175	0x3d290b97	0.04127082
176	0x3cd256a2	0.025676075
177	0xbc25ec8a	-0.010127196
178	0xbd4c62fc	-0.049899086
179	0xbd084603	-0.033269893
180	0x3cef25ac	0.029192768
181	0x3d6ba7fd	0.057533253
182	0xbcd81f0c	-0.026381992
183	0x38c7b500	9.522773e-05
184	0x3c5d3953	0.013502437
185	0xbd4c419b	-0.049867254
186	0xbcb25c76	-0.021772604
187	0xbca2d0f5	-0.01987503
188	0xbda044a6	-0.07825594
189	0x3d5c0cd6	0.05372318
190	0x3d5b4a29	0.05353752
191	0xbd0fc001	-0.03509522
192	0x3bf7b75a	0.007559699
193	0xbda6a3ca	-0.08136709
194	0xbce834cd	-0.02834549
195	0xbcbdb646	-0.023158204
196	0x3c78b004	0.015178684
197	0x3ca1bc9d	0.019743258
198	0xbd8cb96e	-0.068713054
199	0xbd650804	-0.055915847
200	0xbd477c57	-0.048702564
201	0x3d0ccc42	0.034374483
202	0xbd81e5b9	-0.06342644
203	0x3c8e6edc	0.017386846
204	0xbc94de70	-0.018172473
205	0x3caf5650	0.021403462
206	0x3d5a4fa3	0.053298604
207	0xbc1e907e	-0.009678004
208	0x3d6da551	0.058018986
209	0x3d788ec1	0.060683016
210	0xbd38f589	-0.045156036
211	0x3cb95582	0.022623781
212	0xbce1441d	-0.0274983
213	0x3cbddb54	0.023175873
214	0x3d31c17f	0.043397423
215	0xbcc74c1d	-0.024328286
216	0xbd583322	-0.05278314
217	0xbc83d083	-0.016090637
218	0xbbf50e25	-0.007478493
219	0x3cb2da9e	0.02183276
220	0xbd68d3f4	-0.05684276
221	0xbca46430	-0.020067304
222	0xbc1994c0	-0.009373844
223	0xbd996bca	-0.07491262
224	0x3d3382f0	0.043826044
225	0xbd37cf47	-0.04487541
226	0xbd425df1	-0.04745287
227	0x3d107f6e	0.035277776
228	0xbc946bbc	-0.018117778
229	0x3d201392	0.039081164
230	0xbc3ac4da	-0.011399472
231	0x3d6894e2	0.05678261
232	0xbd557e82	-0.0521226
233	0xba24f070	-0.00062919315
234	0xbd369a78	-0.044580907
235	0x3c0fd640	0.0087791085
236	0xbd080be0	-0.03321445
237	0x3d5265ae	0.0513665
238	0x3d13cf0d	0.03608613
239	0xbb2f9e12	-0.0026797098
240	0xbd8942c1	-0.067021854
241	0x3d4619d8	0.04836449
242	0xbcd4f7c7	-0.025997056
243	0xba872a88	-0.0010312358
244	0x3d0321f2	0.032014795
245	0xbd85c322	-0.06531359
246	0xbc3e7312	-0.011624115
247	0xbd07357b	-0.033009987
248	0x3d238cfe	0.039929383
249	0xbd292d37	-0.041302886
250	0x3c712cce	0.014720155
251	0xbd7a24c3	-0.061070215
252	0x3a6723d0	0.0008817287
253	0xbcae001d	-0.021240288
254	0xbb480034	-0.00305177
255	0xbd621649	-0.055197034

fc2.bias f4 [256]
0	0xbce3496c	-0.027744971
1	0xbd8c4455	-0.06848971
2	0x408473f8	4.1391563
3	0x3ede173e	0.43377107
4	0x3d45d683	0.048300277
5	0x3fa0c4ed	1.2560097
6	0xb93d15c0	-0.00018032547
7	0x3c162914	0.009165067
8	0xbd427607	-0.04747584
9	0xbbcfdb8b	-0.0063433102
10	0xc0c6b03c	-6.209013
11	0xbcc97ce0	-0.024595678
12	0x3db22d24	0.08700016
13	0xbe56dc1c	-0.20982403
14	0x3b835434	0.0040078405
15	0xc0de5ffe	-6.949218
16	0x3d33c0a3	0.043884885
17	0x3be205d3	0.006897667
18	0xbd0efa23	-0.034906518
19	0x3e009208	0.12555707
20	0x3d0f25ff	0.034948345
21	0x41226eca	10.152048
22	0x3d2b2c68	0.041790396
23	0x3f21c088	0.63184404
24	0x40ebe933	7.3722167
25	0x3cbe697b	0.023243656
26	0xbd0a8ef1	-0.033827726
27	0x401b0f77	2.422819
28	0x404fd988	3.247652
29	0x3fc449c0	1.5335007
30	0x4055d3ba	3.3410478
31	0xbe50c069	-0.20385899
32	0x41890c28	17.130936
33	0x3c3289cb	0.01089711
34	0xbfafa248	-1.3721399
35	0xbd76a024	-0.060211316
36	0xbd6d0ce2	-0.057873614
37	0xbd44355a	-0.047902443
38	0x3d98e219	0.07465
39	0x3fbf5566	1.4947937
40	0xbd5ef8d8	-0.054436535
41	0xbd3923c6	-0.04520013
42	0xbbf9d770	-0.007624559
43	0xbc2138e1	-0.009840221
44	0x415150e0	13.082245
45	0x3e857b57	0.26070663
46	0xbcdd4919	-0.027012395
47	0x419e029e	19.751278
48	0x3c47160e	0.012151254
49	0xbcd0a31e	-0.025468405
50	0x3bb70de6	0.0055863736
51	0xbbcbca9c	-0.0062192213
52	0xbc6f6228	-0.014610805
53	0x418bf708	17.49562
54	0x407e38a5	3.9722073
55	0x41af1a7a	21.887928
56	0xbcdd6eeb	-0.027030429
57	0xbe4b7f87	-0.19872867
58	0xbd0368a1	-0.032082204
59	0xbd80fb1e	-0.06297897
60	0x40f40eb9	7.626797
61	0x3d103a6b	0.03521196
62	0x3d12960a	0.03578762
63	0x3ce7fdee	0.028319325
64	0xbc2a6649	-0.010400363
65	0xc0301ac3	-2.7516334
66	0xc157f748	-13.497871
67	0xbcebbfce	-0.028777983
68	0xbdbb7cce	-0.09154664
69	0x3c719d99	0.014747047
70	0x40833a7f	4.1008906
71	0x3c437ef2	0.011932122
72	0x4120cc43	10.049869
73	0x3cc5fe11	0.024169
74	0xc076b283	-3.8546455
75	0x3c8f48cd	0.017490769
76	0x3d6e16c1	0.05812717
77	0xbce95cf4	-0.028486706
78	0xc0240726	-2.5629363
79	0x3d1be09f	0.038056012
80	0x3bfca290	0.0077098086
81	0x3bc8929c	0.006120993
82	0x411d53e9	9.832986
83	0xbd0ae402	-0.03390885
84	0xbfebe7eb	-1.8430151
85	0xbc9494e2	-0.0181374
86	0xbdc2eb1f	-0.09517502
87	0xc18a6235	-17.297953
88	0xbd830734	-0.06397858
89	0xbcca87fc	-0.024723046
90	0x3d3836cb	0.04497413
91	0xbc70e0b4	-0.014702011
92	0x3b1454bb	0.002263351
93	0xbba08ac1	-0.0048993533
94	0xbd7e7907	-0.06212714
95	0xbd6faa80	-0.05851221
96	0xbe276906	-0.16348657
97	0xbe844cf8	-0.25839972
98	0x3c5f5e1f	0.01363328
99	0x3ff72c3e	1.9310377
100	0xbcd86ea4	-0.026419945
101	0xbe87bab8	-0.26509643
102	0xbc398b9a	-0.0113247875
103	0xbd9566bb	-0.07294985
104	0x410393b6	8.223562
105	0x3b05ad7c	0.0020397594
106	0xbc311182	-0.010807397
107	0xbf4ee0e9	-0.80811936
108	0x3cf75d3a	0.030195821
109	0xbfd2a416	-1.6456325
110	0xbdb1ad50	-0.08675635
111	0x3c12657f	0.008935331
112	0x3d14d4be	0.0363357
113	0xbdd684e4	-0.104745656
114	0xbce9024f	-0.028443484
115	0xbb367f6c	-0.0027846945
116	0xbcbfbb87	-0.02340485
117	0x3bba7323	0.005689995
118	0xbd47db58	-0.048793167
119	0x4153db41	13.241029
120	0xbce8f6a3	-0.028437918
121	0xbc55a3fe	-0.013039587
122	0x410cb709	8.794686
123	0x3d28094b	0.041024487
124	0x3c43e8a8	0.011957325
125	0xbc9bc174	-0.019013144
126	0x404513c0	3.0793304
127	0x3a89ba35	0.0010507765
128	0x3bfe6d2c	0.007764479
129	0xbdb83890	-0.089951634
130	0xbdc2d3b2	-0.09513034
131	0x41a0005c	20.000175
132	0xbd3a756c	-0.04552214
133	0x40146daf	2.3191946
134	0xbd88e8a8	-0.06685001
135	0x4102799a	8.154688
136	0xc15d5633	-13.833545
137	0xbd97b5c3	-0.07407715
138	0xc1025b21	-8.147248
139	0xc0602d89	-3.5027792
140	0xbd287683	-0.041128647
141	0xbd100c96	-0.035168253
142	0xbc38b1ea	-0.011272887
143	0x4094183d	4.627959
144	0x3d0cb75f	0.034354564
145	0xbc0cd0c6	-0.008594697
146	0xbd91812b	-0.07104715
147	0xbf3dac73	-0.7409126
148	0xbd5a7fa9	-0.053344402
149	0xbcb0fcd5	-0.021604935
150	0xbc783954	-0.015150387
151	0xbdb727f1	-0.08943165
152	0xbcd1c20b	-0.025605222
153	0xbd24bfc2	-0.040221937
154	0x3e12f4b5	0.14351161
155	0xbd970eac	-0.07375845
156	0xbd1e3f76	-0.03863474
157	0x3fa338eb	1.2751745
158	0x3a6d921c	0.00090626045
159	0x3b358850	0.0027699657
160	0xbd8c1568	-0.068400204
161	0x41a69cc9	20.826555
162	0xbd153e5a	-0.036436416
163	0x419f5d48	19.920547
164	0xbbaa9053	-0.005205193
165	0x41aebc58	21.841965
166	0xbc047fd4	-0.008087117
167	0x41a29d58	20.326828
168	0x407f1a80	3.9859924
169	0xbda79e0a	-0.081844404
170	0xc08cdf69	-4.4022717
171	0xbc7e1232	-0.015507268
172	0xbc6bb712	-0.014386909
173	0xbbd0e04f	-0.006374396
174	0xbc6c6e47	-0.014430589
175	0x3f3c283e	0.73498905
176	0x404145ee	3.0198932
177	0xbd5ce6bd	-0.053930987
178	0x3f07cb3b	0.5304448
179	0x3e92e91b	0.2869347
180	0x418d36da	17.651783
181	0xbe25337a	-0.16132918
182	0xbd477f56	-0.04870542
183	0x3c8a8388	0.016908422
184	0x3b2f9eaa	0.0026797452
185	0x3d16da97	0.036829557
186	0x3cdb9dca	0.026808638
187	0xbd1d5ab0	-0.038416564
188	0x3d9972b1	0.07492579
189	0x41e26f5a	28.30437
190	0xbbeb06b6	-0.007172431
191	0xbdcd09fc	-0.1001167
192	0xbdb41691	-0.08793367
193	0x3d61b567	0.05510464
194	0xbd17ace9	-0.037030134
195	0x4189e2ab	17.235678
196	0xbd436ac1	-0.04770923
197	0xc07fcba3	-3.996804
198	0x418788b0	16.941742
199	0x3d0faa01	0.035074238
200	0xbd2f9be2	-0.04287327
201	0x40a8e296	5.2776594
202	0x3fa8799c	1.3162112
203	0xbe204643	-0.15651803
204	0x3d1fad19	0.03898344
205	0xbd9c52cf	-0.07632982
206	0xbc0fee36	-0.008784821
207	0x403b779f	2.929176
208	0xbc9367af	-0.017993776
209	0xbcbbc178	-0.022919402
210	0x408c9c3c	4.3940716
211	0x41138bd3	9.221637
212	0x3eadba6d	0.33931294
213	0x40ce7551	6.451821
214	0xbd41f7c1	-0.047355417
215	0xbff870a3	-1.9409374
216	0x4180a289	16.079363
217	0xbdbe24e4	-0.0928438
218	0x40b3c151	5.617348
219	0x3d2dac05	0.04240038
220	0xbd0a0101	-0.033692364
221	0xbda2b639	-0.079449125
222	0xbcb48012	-0.022033725
223	0xbc373cc4	-0.011183921
224	0x3cdad832	0.026714418
225	0xbc479b32	-0.012182998
226	0x3d476c66	0.04868736
227	0x40182f30	2.37788
228	0x3d3f82d1	0.046755616
229	0xbdc0992d	-0.09404216
230	0x3d4ddddf	0.05026042
231	0xbd22b7ec	-0.039726183
232	0xbc905664	-0.01761932
233	0xbda76449	-0.08173425
234	0x416a70b2	14.6525135
235	0x3c501668	0.012700655
236	0x3d5d4ceb	0.054028433
237	0x3d3f1dda	0.046659328
238	0x3c9b6edf	0.018973766
239	0x3f82c32c	1.0215812
240	0xbda2e66b	-0.07954105
241	0xbd5674e7	-0.05235758
242	0xbbc8bac2	-0.006125779
243	0x3bbe3467	0.0058045867
244	0x40313815	2.769048
245	0xbd0bd236	-0.03413602
246	0x3a4d1af0	0.00078241434
247	0xbd6a1510	-0.057148993
248	0x3d499958	0.049218506
249	0x41192fbf	9.574157
250	0xbe065863	-0.13119654
251	0xbc0524b6	-0.008126428
252	0xbc68d6bb	-0.014211352
253	0xbdc6b400	-0.09702301
254	0xbbc9e26a	-0.006161024
255	0x3fd280b0	1.6445522

fc3.weight f4 [256, 256]
0	0xbcb27dd8	-0.021788523
1	0x3cd2f8e4	0.025753446
2	0xbc93d6ff	-0.018046854
3	0x3d361fb7	0.04446384
4	0x3d288808	0.041145355
5	0xbd4a9403	-0.04945756
6	0x3c6a6ff5	0.014308919
7	0xbcd1e09a	-0.025619794
8	0xbd036950	-0.032082856
9	0x3c8b4a01	0.017003061
10	0x3d757adc	0.05993162
11	0xbd58a9ef	-0.052896436
12	0xbb1cb594	-0.002391194
13	0xb8488100	-4.7803856e-05
14	0x3c270d02	0.010195972
15	0x3cad6e50	0.021170765
16	0xbac1d598	-0.0014788387
17	0x3b90f702	0.004423977
18	0xbd741bf8	-0.059596986
19	0xbc30bf69	-0.010787823
20	0xbd366458	-0.04452929
21	0xbda6b7d1	-0.08140529
22	0x3ca74a89	0.020421283
23	0x3c2f9303	0.010716203
24	0xbc964528	-0.018343523
25	0xbd9a645c	-0.07538673
26	0x3c65d694	0.01402821
27	0x3d54e675	0.051977593
28	0xbd3987c2	-0.045295484
29	0xba63856e	-0.00086792454
30	0xbc93f3f6	-0.018060666
31	0x3c385712	0.011251228
32	0x3cd49c10	0.025953323
33	0x3c19dbc7	0.009390778
34	0xbcdcd6e2	-0.026957933
35	0xbcabb3e2	-0.020959798
36	0x3c3bc360	0.011460155
37	0xbc55aa3e	-0.013041077
38	0x3cccd967	0.02500601
39	0xbd535620	-0.051595807
40	0xbb90c4da	-0.004417998
41	0x3aa4b84c	0.0012567132
42	0xbd3746a0	-0.044745088
43	0x3cda7f36	0.026671987
44	0xbcfc04de	-0.03076404
45	0x3d06efe4	0.03294362
46	0x3c8f5fe1	0.017501773
47	0xbcb30e7a	-0.021857489
48	0x3cda1d35	0.026625255
49	0xbc83abd5	-0.016073147
50	0xbd45e30f	-0.048312243
51	0x3c85d9f1	0.016339274
52	0x3ca9bee8	0.020720914
53	0xbcf12b24	-0.029439516
54	0xbb90e5c5	-0.004421922
55	0xbddd914e	-0.1081873
56	0xbd812592	-0.06305994
57	0x3d01c20b	0.031679194
58	0x3d41dc4e	0.04732924
59	0xbbd84ea2	-0.0066011706
60	0xbd7ff371	-0.062488023
61	0xbd300a4b	-0.042978566
62	0x3ce24514	0.02762083
63	0xbc4e6220	-0.012596637
64	0x3d13b877	0.03606459
65	0xbd9c9f12	-0.07647528
66	0xbc84b83e	-0.016201135
67	0x3ce009cd	0.027348423
68	0x3d306bea	0.043071665
69	0xbd3c7fff	-0.046020504
70	0xbd83d5eb	-0.06437286
71	0x3d1cc768	0.038276106
72	0x3c8d5f0b	0.017257234
73	0x3c71a8b6	0.0147496965
74	0xbd630954	-0.055428818
75	0xbcb1f067	-0.021721078
76	0x3d34a391	0.0441013
77	0x3d4d2cb6	0.050091468
78	0x3cf99953	0.030468618
79	0x3d51b783	0.0512004
80	0xbc27c08d	-0.010238779
81	0xbd123a93	-0.035700392
82	0xbbac8827	-0.005265254
83	0xbb34823c	-0.0027543446
84	0xbd594658	-0.0530456
85	0xbd82d0f2	-0.063875094
86	0x3cf5ee7e	0.030020948
87	0x3c8e1fcb	0.017349144
88	0x3d863bdd	0.06554387
89	0xbc661576	-0.014043203
90	0x3d3e7ed2	0.046507664
91	0xbd240e21	-0.040052537
92	0x3bfcc934	0.007714415
93	0xbd833268	-0.064060986
94	0xbbc9ef4c	-0.0061625596
95	0xbb9a69ac	-0.004712304
96	0xbbe34b36	-0.006936456
97	0x3caf5a46	0.02140535
98	0xbca9c4a0	-0.02072364
99	0xbcc0883e	-0.023502465
100	0x3d8a551e	0.06754516
101	0xbd7d02f7	-0.061770406
102	0xbcda72fc	-0.026666157
103	0x3d4a3ece	0.0493763
104	0xbd042ed5	-0.032271225
105	0x3a083c00	0.0005196929
106	0x396b19aa	0.00022420907
107	0x3d3abdf2	0.045591302
108	0xbd1795a1	-0.03700793
109	0x3c2bae40	0.010478556
110	0xbc455144	-0.012043301
111	0xbd6d0c0d	-0.05787282
112	0xbbceddfa	-0.0063130828
113	0x3c91f31e	0.017816123
114	0x3c8b8cc0	0.017034888
115	0x3d5a65b2	0.05331964
116	0xbc20af5f	-0.009807437
117	0x3d8ba25b	0.06818076
118	0xbc6b1ab6	-0.01434963
119	0xbcc2dc72	-0.023786757
120	0xbd73b70c	-0.05950074
121	0x3cd518a9	0.026012735
122	0x3d558f74	0.05213876
123	0x3d28f4b2	0.041248985
124	0xbc8d6904	-0.01726199
125	0x3c13ab26	0.009012973
126	0xbd9d451a	-0.07679196
127	0x3b9ba74c	0.004750168
128	0x3ca30058	0.019897625
129	0xbc09ad24	-0.008403096
130	0x3d5a3d23	0.05328096
131	0x3c18dcdf	0.0093300035
132	0xbb213b9a	-0.0024602176
133	0xbd481792	-0.048850603
134	0x3c99c16b	0.018768987
135	0xbd901725	-0.070356645
136	0xbd991ff4	-0.07476798
137	0xbc20e8e5	-0.009821151
138	0x3d619cee	0.0550813
139	0x3c16069c	0.009156849
140	0xbd8268a7	-0.06367617
141	0xbc025d0d	-0.007956755
142	0xbd5949ec	-0.053049013
143	0x3c733678	0.014844529
144	0x3cdcc617	0.026949925
145	0x3ccb686e	0.02483007
146	0xbcc71365	-0.02430124
147	0xb9e63a9a	-0.0004391268
148	0x3cc1413f	0.023590682
149	0x3c9b610f	0.01896718
150	0x3c4252c6	0.011860555
151	0x3cf5fe78	0.030028567
152	0xbd87a2e9	-0.066228695
153	0xbd08635a	-0.033297874
154	0xbccc0d76	-0.024908762
155	0xbd743360	-0.059619308
156	0x3c0f1ebd	0.008735356
157	0xbb744090	-0.0037269928
158	0x3d21da19	0.039514635
159	0xbc34ba61	-0.011030764
160	0x3d6f6c85	0.0584531
161	0x3bec316e	0.007208041
162	0x3d8f245a	0.069893554
163	0xbd55ad96	-0.052167498
164	0x3ca1583b	0.019695392
165	0xbdb93d1f	-0.09044861
166	0x3cc072d3	0.023492252
167	0x3d700f98	0.05860862
168	0xbce40f61	-0.027839364
169	0xbd2246f0	-0.039618433
170	0x3c8082c4	0.015687354
171	0x3beff2dd	0.0073226527
172	0xbd3be935	-0.0458767
173	0x3d8178be	0.06321858
174	0x3d4de026	0.050262593
175	0x3ca45918	0.020062014
176	0xbd0d83f8	-0.034549683
177	0x3c9338f4	0.017971493
178	0x3d256a1d	0.0403844
179	0x3d104613	0.035223078
180	0xbd300d17	-0.042981233
181	0xbd0830f0	-0.033249795
182	0xbd049d8e	-0.03237682
183	0x3d300a9c	0.042978868
184	0x3d52bc1b	0.051448923
185	0xbd63269c	-0.055456743
186	0x3c60add2	0.013713317
187	0xbd1ba6cc	-0.038000867
188	0xbc52406e	-0.012832744
189	0xbcf7f5d0	-0.03026858
190	0xbd42b410	-0.047535002
191	0xbc9af798	-0.01891689
192	0x3c61bed6	0.013778409
193	0x3d7fdc8d	0.062466193
194	0xbb0fb251	-0.0021926353
195	0xbbc29cac	-0.005939087
196	0x3d4e7e2d	0.0504133
197	0xbdbfee1b	-0.09371587
198	0xb9b73eb8	-0.0003495121
199	0x3c392cdd	0.0113022
200	0x3ceed5a4	0.029154606
201	0xbd14470e	-0.036200576
202	0xbda1fe81	-0.07909871
203	0x3d329c50	0.043606102
204	0x3ba83e43	0.0051343753
205	0x3be19860	0.0068846196
206	0xbca03a16	-0.019558948
207	0x3d557372	0.05211205
208	0xbd562e3c	-0.052290186
209	0xbb812195	-0.003940771
210	0x3d38bb36	0.045100413
211	0xbc38f0f5	-0.011287917
212	0xbd26a2dd	-0.040682662
213	0xbd975287	-0.07388788
214	0x3d0185b3	0.031621646
215	0xbd1a712b	-0.03770558
216	0xbd20f731	-0.03929824
217	0xbd1a5edb	-0.037688117
218	0x3c5fc07b	0.013656731
219	0xba377d0e	-0.00069995306
220	0x3d13dd95	0.03609999
221	0xbc991eac	-0.018691383
222	0xbbb5cb7b	-0.0055479384
223	0xbd0c0094	-0.03418024
224	0x3c48e6fe	0.012262104
225	0xbd3858aa	-0.04500643
226	0x3cfbbaf0	0.030728787
227	0xbd2c370e	-0.04204469
228	0xbd7169e8	-0.05893889
229	0xbd4b2c8d	-0.049603034
230	0x3d61e51d	0.05515014
231	0xbd705727	-0.058676865
232	0x3d18c257	0.037294712
233	0x3d0dbcb2	0.034603782
234	0xbcbdff72	-0.023193095
235	0xbd890781	-0.066908844
236	0xbd81b240	-0.063328266
237	0xbd4b4acd	-0.049631882
238	0xbd5f0e66	-0.05445709
239	0x3c6fa724	0.014627252
240	0x3cf1fa9b	0.029538443
241	0xbd07c742	-0.03314901
242	0xbcdea68a	-0.027179021
243	0xbd2d4f8a	-0.042312182
244	0x3c8f0cd5	0.017462173
245	0x3ab0bda0	0.0013484247
246	0xbd5b1954	-0.05349095
247	0x3b948136	0.0045320047
248	0xbc08d0aa	-0.008350531
249	0xbd932412	-0.07184614
250	0xbd2a367e	-0.041555874
251	0xbca781be	-0.020447608
252	0xbc6729ee	-0.014109118
253	0x3c8433d3	0.016137993
254	0x3bbfe7a2	0.00585647
255	0x38e7dce0	0.000110560795

fc3.bias f4 [256]
0	0xbdc55064	-0.09634474
1	0xbc3d385c	-0.011549082
2	0xbcdd2514	-0.02699522
3	0xbc40bb2a	-0.011763373
4	0xbd44b633	-0.04802532
5	0x3d2263be	0.039645903
6	0xbdc4600e	-0.095886335
7	0x3d26eb4c	0.04075174
8	0xbd73413d	-0.059388388
9	0x3e0fd56e	0.1404626
10	0x41b2713b	22.305288
11	0xbd1dbab6	-0.03850814
12	0x3cc73f31	0.024322124
13	0xbda5fb78	-0.081046045
14	0x3f2915fa	0.6604916
15	0xbc5e06ac	-0.013551395
16	0x3d020b52	0.031749077
17	0xbd095e2a	-0.033537067
18	0xbd397927	-0.045281556
19	0x3b9a3962	0.0047065476
20	0xbdd67928	-0.104723275
21	0xbc42dc60	-0.011893362
22	0x41637adf	14.217498
23	0xbd59f4a0	-0.05321181
24	0x4181d2cf	16.227934
25	0xc1d38c30	-26.44345
26	0x3c5243dc	0.012833562
27	0xbdaeaf58	-0.08529538
28	0xbd8f0e1a	-0.069851115
29	0xbcf783f1	-0.030214282
30	0x3f2e8700	0.68174744
31	0xbd900d09	-0.07033736
32	0xbda4f391	-0.08054269
33	0xbd309e5f	-0.043119784
34	0xbda2169e	-0.0791447
35	0xbd08b58a	-0.033376254
36	0xbdc0cf92	-0.09414591
37	0x38d22500	0.00010020472
38	0xbdee5c8b	-0.11638745
39	0xbd1495a9	-0.03627554
40	0x3e0cf12b	0.13763873
41	0x417057e7	15.021461
42	0xbc0687b8	-0.008211069
43	0xbd21e27e	-0.03952264
44	0x3c75e84d	0.015008998
45	0x3da6d810	0.081466794
46	0xbcc9e9d6	-0.024647634
47	0xbd18a6f8	-0.03726861
48	0xbd8e449b	-0.06946679
49	0xbd83213b	-0.064028226
50	0xbd443caa	-0.047909416
51	0xbdc3811f	-0.09546112
52	0xbdc1d88e	-0.09465133
53	0x41b8171d	23.011286
54	0x3d91946a	0.07108386
55	0xbd81b27a	-0.0633287
56	0xbbf4f52d	-0.0074755163
57	0x38c78000	9.512901e-05
58	0xbd0468bc	-0.032326445
59	0xbc92b04c	-0.01790633
60	0x3cca784e	0.024715569
61	0x3ffe8ffd	1.9887692
62	0x3c823638	0.015894994
63	0xbdb9738c	-0.09055242
64	0x4126cdf7	10.425284
65	0x3cf06e21	0.029349389
66	0x3d982338	0.074285924
67	0x403e57f4	2.9741182
68	0x3cbb05f7	0.022829993
69	0xbc17d1d4	-0.0092663355
70	0xbd70e6d2	-0.058813877
71	0x418fd3fd	17.97851
72	0x3d8e2cc9	0.06942136
73	0x3bb20a45	0.005433353
74	0x3c499d1c	0.012305524
75	0x3e07ad2b	0.13249652
76	0xbd08fed5	-0.03344615
77	0x41887a56	17.059734
78	0x419362b0	18.423187
79	0xb93c1060	-0.00017935177
80	0xbcf39098	-0.029732034
81	0xbdbbcdac	-0.09170088
82	0x3c6e1b1a	0.014532829
83	0xbcfb84ee	-0.030703034
84	0xbc80c031	-0.015716644
85	0xbc282640	-0.010263026
86	0xbbf816fa	-0.0075710984
87	0xc1c95245	-25.16517
88	0x3ce0384f	0.0273706
89	0xbd778557	-0.060429897
90	0x40a9cfe0	5.3066254
91	0xbd3273e7	-0.043567564
92	0x418185c7	16.190321
93	0x3cea5f75	0.02860997
94	0xc1c22517	-24.26811
95	0xbfb1ec1a	-1.3900177
96	0xbcd38f1e	-0.02582508
97	0x3f8108c4	1.00808
98	0x417a613e	15.648741
99	0x4187672e	16.92538
100	0xbe0a1ab1	-0.13486744
101	0xbcccad7f	-0.024985073
102	0x3c0b33f2	0.008496271
103	0xbbd5ed02	-0.0065284977
104	0x418ec672	17.846897
105	0xbe233d43	-0.15941338
106	0x40abe7b1	5.3720326
107	0x41970071	18.875216
108	0x3c5bd3e3	0.013417217
109	0xbf41a10c	-0.75636363
110	0x3ce5ad5b	0.028036764
111	0xbcaf1a6a	-0.0213749
112	0x40dac44c	6.836462
113	0x3d0fec62	0.03513754
114	0xbe14a59e	-0.14516303
115	0xbd450e88	-0.04810956
116	0xbd74a334	-0.059725955
117	0xbd81b87a	-0.06334014
118	0xbdbd9fcd	-0.09258995
119	0x3c28407d	0.010269281
120	0x3cf773e4	0.030206628
121	0xc13db049	-11.855538
122	0xbde5bb32	-0.11217345
123	0xc0600296	-3.5001578
124	0xbba03e41	-0.0048902337
125	0xbd8adaa7	-0.06779986
126	0x40b04d98	5.509472
127	0xbd91e884	-0.07124427
128	0x3bef1038	0.0072956346
129	0xbd034e32	-0.032056995
130	0x3ce7c196	0.028290551
131	0xbe5a0c14	-0.2129367
132	0x3cda07c8	0.026615039
133	0xbe8290ba	-0.25501043
134	0x418d7fe1	17.68744
135	0xbdaffb0f	-0.085928075
136	0x3c8e7029	0.017387467
137	0xbddcdf84	-0.1078482
138	0xbd067f34	-0.032836154
139	0xbcc2e0ef	-0.023788897
140	0x3c88b776	0.016689043
141	0xbdc09392	-0.09403147
142	0xbc1b5694	-0.009481091
143	0x3d2207e0	0.03955829
144	0x3ca22754	0.019794144
145	0xbdf3bac0	-0.11900854
146	0xbd7d09a9	-0.06177679
147	0x3c94f837	0.018184764
148	0x41b5c5c8	22.721573
149	0x39d0f4b0	0.00039855158
150	0x3cbd52e5	0.023110816
151	0xbdfa1c11	-0.122123845
152	0xbd2b05b7	-0.041753497
153	0xbe95a287	-0.2922556
154	0xbdc24707	-0.09486204
155	0xbd13c29c	-0.036074266
156	0x3ab20e30	0.001358455
157	0x40e4b101	7.146607
158	0xbda917cb	-0.08256491
159	0xbd3e55da	-0.046468593
160	0xbcbe9780	-0.0232656
161	0x3d7e186d	0.062035013
162	0x3c5fbffe	0.013656614
163	0xbe2073c8	-0.15669167
164	0xc1983824	-19.027412
165	0x41592c66	13.573339
166	0x3cb3dac4	0.021954902
167	0xbd66e9d1	-0.05637533
168	0xbd76fff4	-0.06030269
169	0xbd20cf5d	-0.039260257
170	0xbd172c6f	-0.03690761
171	0xbd264a15	-0.040597994
172	0xbe9f2d1f	-0.31089112
173	0xbd00278c	-0.031287715
174	0x41d6f640	26.87024
175	0xc169c920	-14.611603
176	0x3c8f99f4	0.017529465
177	0x418ded8a	17.740986
178	0xbdfb5f88	-0.122740805
179	0x3bfc8906	0.007706764
180	0x418dd4db	17.728933
181	0x3ed2fe49	0.4120963
182	0xbd3b5dc6	-0.045743726
183	0xbd262eb6	-0.04057189
184	0xbe00968d	-0.1255743
185	0xbe7ff542	-0.24995902
186	0xbd8ba5ac	-0.06818709
187	0xbda66815	-0.08125321
188	0xbd495d2f	-0.049161132
189	0xbc8dede0	-0.017325342
190	0xbe157463	-0.1459518
191	0x3e91dab9	0.28487185
192	0x4137e709	11.493905
193	0xbdc86f93	-0.09786906
194	0x416b75e8	14.716286
195	0xbc953b69	-0.018216806
196	0xbb81741c	-0.003950609
197	0xbd9796ce	-0.074018106
198	0xc074a64e	-3.8226504
199	0xbd285ad2	-0.041102238
200	0x4182ce96	16.350872
201	0x417736a5	15.450841
202	0x3c61e05d	0.0137864025
203	0xbdd0772d	-0.10178981
204	0xbd3da106	-0.046296142
205	0xc156bf10	-13.421646
206	0xc1979511	-18.947786
207	0x3b7bcc6c	0.0038421405
208	0xbdc2ec72	-0.095177546
209	0x3da4f289	0.080540724
210	0xbcd04501	-0.025423529
211	0xbdd83f32	-0.105589285
212	0xbd5835f6	-0.052785836
213	0xba80b9c4	-0.0009820987
214	0x3cdb97dc	0.02680581
215	0x3c4dd75f	0.0125635555
216	0x3d0a093a	0.033700205
217	0xbbf845a6	-0.007576662
218	0xbc184e60	-0.00929603
219	0xc04a4dfc	-3.1610098
220	0xbdb25d0b	-0.08709153
221	0x3c9f00f3	0.019409632
222	0xbe197e8f	-0.14989685
223	0x3d10619c	0.035249338
224	0xbd83b1c9	-0.06430394
225	0x4182a61e	16.331112
226	0xbd84b233	-0.06479301
227	0xc0af4bef	-5.478019
228	0xbd1481e2	-0.03625668
229	0x418b54cd	17.416407
230	0x3bade4ca	0.005306815
231	0x3c69a5a0	0.0142606795
232	0xbd37e226	-0.044893406
233	0x3d59e493	0.0531965
234	0xbbbec486	-0.0058217673
235	0xbd2c64ce	-0.042088322
236	0xbc4b5cf0	-0.012412295
237	0xc09dd48f	-4.932197
238	0xc1cc7548	-25.557266
239	0x3ca9bd61	0.020720186
240	0xbd9d12ef	-0.07669627
241	0xbdf0e240	-0.11761904
242	0xbf0890cd	-0.5334595
243	0xbd8b0e99	-0.06789894
244	0xbde68189	-0.112551756
245	0x3ca7a722	0.020465437
246	0x3f168718	0.58799887
247	0xbc9c2681	-0.019061329
248	0xbd722d9c	-0.059125528
249	0x3d16f4e4	0.03685464
250	0x3c2795f2	0.010228621
251	0x417607a9	15.37687
252	0xbdfefb8a	-0.12450321
253	0x40c2eb6e	6.091239
254	0x3cb05cfc	0.021528713
255	0xc147d541	-12.489564

fc4.weight f4 [256, 256]
0	0xbd37a64a	-0.04483632
1	0xbd0fce49	-0.03510884
2	0x3d1d53aa	0.038409866
3	0x3d04b129	0.032395516
4	0x3ce52c8f	0.027975349
5	0xbd7ca83f	-0.06168389
6	0xbda90cfa	-0.08254428
7	0x3bca8157	0.0061799693
8	0x3d58b52e	0.05290716
9	0xbcfc4154	-0.03079287
10	0x3e207894	0.15670997
11	0xbcd6e0ca	-0.026230235
12	0x3cf71a94	0.03016404
13	0x3d0ffc52	0.03515274
14	0xbd381e84	-0.044950977
15	0x3d085778	0.03328654
16	0xbd218f4c	-0.0394433
17	0x3d0fbf9f	0.035094853
18	0xbd5dceb1	-0.054152194
19	0xb8dd8580	-0.000105629675
20	0xbccc68d5	-0.024952332
21	0x3d8306aa	0.063977554
22	0x3cf26ab8	0.029591903
23	0xbbb13771	-0.0054082205
24	0x3e73a6ed	0.23794146
25	0xbf027f5d	-0.5097559
26	0xbc6d80a3	-0.014496001
27	0xbd041dff	-0.03225517
28	0x3b98d713	0.0046643107
29	0x3bc3f0e6	0.005979645
30	0x3d924585	0.07142166
31	0xbbdaf09e	-0.006681516
32	0x3c483f26	0.012222087
33	0x3cf0c35d	0.029390031
34	0xbd707d5e	-0.05871331
35	0xbced6b66	-0.028981876
36	0xbd1a10aa	-0.03761355
37	0x3d178599	0.036992643
38	0x3d91e132	0.07123031
39	0x3d3924ff	0.045201298
40	0xbc796e44	-0.015224043
41	0x3e93ee8a	0.28892928
42	0xbc173e70	-0.009231195
43	0xbcfc250b	-0.030779382
44	0xbd5e491c	-0.05426894
45	0x3cbe5e42	0.023238305
46	0x3db1a79a	0.086745456
47	0xbd02b4c7	-0.031910684
48	0x3d3006ed	0.042975355
49	0xbd46fe3a	-0.048582293
50	0xbd0822b8	-0.033236235
51	0xbd5eaffa	-0.054367043
52	0xbaf5f140	-0.0018763915
53	0x3f853fd8	1.0410109
54	0x3d7bedda	0.06150613
55	0xbc5c276a	-0.013437131
56	0x3d49edfc	0.049299225
57	0x3d2aaa0d	0.04166608
58	0xbd1ac285	-0.037783165
59	0x3d5b035e	0.053470008
60	0xbd22a9e8	-0.039712816
61	0x3f201ad6	0.6254095
62	0x3c16bbab	0.009200017
63	0x3d9a1b37	0.07524722
64	0x3f5229b2	0.8209487
65	0x3d86e2fc	0.065862626
66	0xbc15a967	-0.009134627
67	0x3f15766d	0.5838383
68	0xbd31811a	-0.04333601
69	0x3d0f6f4c	0.03501825
70	0xbd3914b5	-0.045185763
71	0x3e54fc69	0.20799412
72	0xbc1826ed	-0.009286624
73	0xbc42f344	-0.011898819
74	0x3b491e20	0.0030688122
75	0x3cf4b41a	0.029871035
76	0x3d280ac7	0.041025903
77	0x3e438d2a	0.19096819
78	0x3db98ecd	0.0906044
79	0xbc85c810	-0.016330749
80	0x3db6e34e	0.08930074
81	0xbd865a47	-0.06560188
82	0xbbc86deb	-0.006116619
83	0x3d65fcff	0.05614948
84	0x3c86f1d9	0.016472744
85	0x3d806a4a	0.06270273
86	0xbc012456	-0.007882198
87	0xbd894ac1	-0.06703711
88	0x3cb450d2	0.022011194
89	0xbd24f938	-0.040276736
90	0x3e87db36	0.26534432
91	0xbc6d144c	-0.014470171
92	0x3e953c8c	0.29147756
93	0xbce014f8	-0.027353749
94	0xbf01ed36	-0.5075258
95	0xbe271a3d	-0.16318603
96	0xbd88a673	-0.06672373
97	0xbdb04940	-0.08607721
98	0x3e799825	0.24374445
99	0x3e76d605	0.2410508
100	0xbd7bedbe	-0.061506025
101	0xbb5c9248	-0.0033656526
102	0x3d31dae0	0.043421626
103	0x3db86403	0.09003451
104	0x3e371653	0.1787961
105	0x3d7423de	0.059604518
106	0x3f668b6c	0.9005649
107	0x3e4478a6	0.19186649
108	0xbc81a66c	-0.015826426
109	0xbe9efdc2	-0.31052977
110	0x3bbbb486	0.005728307
111	0x3ea17525	0.31534687
112	0x3e33c0bb	0.1755399
113	0xbd6446de	-0.055731647
114	0x3ce9215b	0.028458288
115	0x3c0842d3	0.008316713
116	0x3d99b7c8	0.075057566
117	0x3d893bf4	0.06700888
118	0xbc7817e9	-0.015142419
119	0x3d00d778	0.031455487
120	0xbb797d60	-0.0038069114
121	0xbfe47d5c	-1.7850757
122	0xbd2916e3	-0.041281592
123	0xbeb6127a	-0.35560971
124	0x3d26f0fe	0.04075717
125	0xbc58b728	-0.013227262
126	0x3f27bc27	0.6552147
127	0xbc469d55	-0.012122472
128	0x3ce492b3	0.027901983
129	0xbcd2f6d7	-0.025752468
130	0x3d19466a	0.037420668
131	0xbd8ed9e8	-0.06975156
132	0xbc342641	-0.010995449
133	0x3d75bcb9	0.059994433
134	0x3e4485f3	0.19191723
135	0x3d8a4ce4	0.06752947
136	0x3ce8fe2d	0.028441513
137	0xbd08c2cc	-0.033388898
138	0xbd0b05a2	-0.03394092
139	0x3d81d10e	0.06338702
140	0xbc92e257	-0.017930193
141	0x3d7f1f99	0.062285993
142	0xbde31544	-0.110880405
143	0xbbb8c19b	-0.005638314
144	0xbb813896	-0.003943513
145	0x3d3a71a9	0.04551855
146	0x3d6dfbe2	0.058101542
147	0x3d2f0e1b	0.04273806
148	0x3e7bbbe8	0.245834
149	0x3ca173e3	0.01970858
150	0xbd06642e	-0.032810383
151	0x3d3b5a34	0.04574032
152	0xbc30121d	-0.010746506
153	0xbb585daf	-0.0033014824
154	0x3c14788a	0.009061942
155	0x3c432a16	0.01191189
156	0x3d583638	0.052786082
157	0x3ee4434e	0.445826
158	0xbbb4f978	-0.005522903
159	0x3cb1040b	0.021608373
160	0xbd803d12	-0.06261648
161	0xbca4d9c1	-0.020123364
162	0xbb5d0e1b	-0.0033730331
163	0xbd6ae820	-0.057350278
164	0xbe2f58e1	-0.17123748
165	0x3f2a4389	0.665093
166	0xbd8f21f0	-0.06988895
167	0x3c8945c5	0.016756902
168	0xbc047549	-0.008084604
169	0x3bedcfa0	0.007257417
170	0x3d3c36d2	0.04595072
171	0xbc346d3a	-0.01101237
172	0x3d0ddd9a	0.034635164
173	0x3cd4abab	0.025960764
174	0x3f254ac7	0.64567226
175	0xbefdead5	-0.49593225
176	0xbb1b6880	-0.002371341
177	0x3f9bae2d	1.2162529
178	0xbc09917a	-0.008396501
179	0xbd56ad30	-0.05241126
180	0x3e27ebd0	0.16398549
181	0xbcef88e6	-0.029240083
182	0xbd85fb1a	-0.065420344
183	0x3c02aa82	0.007975223
184	0x3c900d0e	0.01758435
185	0x3d618896	0.0550619
186	0xbd2d326b	-0.04228441
187	0x3d2240e7	0.039612677
188	0xbce82bd5	-0.028341213
189	0xbd2bb3f8	-0.04191968
190	0x3cbd1ce0	0.023085058
191	0x3c8723bf	0.016496537
192	0x3ec76f33	0.38952026
193	0xbcd405b0	-0.025881618
194	0x3e89fe19	0.26951674
195	0xbd300cf6	-0.04298111
196	0x3d0b14c4	0.03395535
197	0x3c8d91cc	0.017281435
198	0xbea699e3	-0.3253928
199	0xbcf7569f	-0.030192671
200	0x4002f15b	2.0459812
201	0x3f6239c2	0.8836938
202	0x3c1d56d8	0.009603225
203	0x3d5863f0	0.052829683
204	0xbbbcce1c	-0.005761875
205	0xbf195a94	-0.59903836
206	0xc023e1b0	-2.5606499
207	0xbd31c760	-0.04340303
208	0x3c892469	0.016740995
209	0xba1ed540	-0.00060589984
210	0x3d0ca1c3	0.034333955
211	0xbb951112	-0.004549154
212	0xbbb7e662	-0.0056121806
213	0xbc058ae0	-0.008150786
214	0x3d9e9710	0.07743657
215	0x3d9d81ee	0.07690798
216	0xbbd9b3ae	-0.006643734
217	0x3d99d286	0.07510857
218	0x3c8c7a9f	0.017148314
219	0xc02cd6c5	-2.7006085
220	0x3c160c4c	0.009158205
221	0x3d2a96a2	0.04164756
222	0xbd1a27fa	-0.03763578
223	0x3c8dba68	0.0173008
224	0x3ca2b6ff	0.01986265
225	0x3e6964a8	0.22792304
226	0xbb71a650	-0.0036872812
227	0xbfdb908c	-1.7153487
228	0x3cc81a22	0.024426524
229	0x3e398dd9	0.18120517
230	0xbd3c43ca	-0.045963086
231	0xbd66d23a	-0.05635283
232	0xbc63d073	-0.013904679
233	0xbd2428b7	-0.04007789
234	0x3c6e4d60	0.014544815
235	0xbd6cbd70	-0.05779785
236	0x3d6ab026	0.057296894
237	0xbe65ef1a	-0.22454491
238	0xbfcc2458	-1.5948591
239	0xbcaf005a	-0.021362472
240	0x3e489a46	0.195901
241	0xbd6cd78e	-0.057822756
242	0x3ca3886b	0.01996251
243	0x3be65a07	0.007029775
244	0xbd433fdd	-0.047668327
245	0xbcaadee8	-0.020858243
246	0x3dd8269c	0.10554239
247	0x3d2e1394	0.04249914
248	0x3db72058	0.08941716
249	0xbd789fde	-0.060699336
250	0xbb2777dc	-0.002555362
251	0x3e830382	0.25588614
252	0xbcb75ea1	-0.02238399
253	0x3e6cd846	0.23129377
254	0x3cbb6ef6	0.022880059
255	0x3f3d4819	0.7393814
